checkpoint.pth (torch, 21847 bytes, 6 tensors)

fc1.weight f4 [64, 8]
-0.023712583 -0.82727 -0.14583375 -0.61720854 -0.09103312 0.100114845 0.06254258 0.42118776
-0.443655 -0.8201138 -0.1913165 -0.3595632 -0.5270746 -0.60928166 -0.1907497 0.26037616
0.14488703 -0.18774715 -0.09930328 -0.20055422 0.34480703 0.51103467 0.09636615 0.34553972
0.2129867 -0.304137 0.4028899 -0.30586225 -0.59565353 -0.45879087 -0.19366854 0.41762578
-0.1129925 -1.1383636 -0.18057716 -0.7693914 -0.070275016 0.2264992 0.3082036 0.21642588
0.14131023 -1.2363173 0.11129428 -0.7396696 -0.3324335 -0.35619333 0.23275223 0.3680523
-0.31444725 -0.11601927 0.05348429 0.08926711 0.62498975 0.5653863 0.31402197 -0.43960023
0.0943693 -1.4488161 -0.06749052 -0.6478595 0.1346911 0.13695745 -0.009883061 0.19842425
0.44866216 -0.034632523 0.078775786 -0.026354771 0.6341878 0.72795826 -0.16277674 -0.16559546
-0.02170738 0.9624146 0.4255681 0.74416286 -0.54485273 -0.46438164 -0.32114902 -0.40144184
-0.28808296 0.39548358 0.26821336 -0.6952526 0.37642905 0.6450062 0.4447258 0.10767188
-0.15545575 0.019037466 0.07201205 -0.037769273 0.6439409 0.7138912 0.07302156 -0.37822574
0.2854805 0.09148126 0.041199863 -0.1594827 0.57147986 0.77758366 0.26694086 -0.29430476
-0.6140075 -1.095605 -0.22130728 -0.55101895 -0.00022232736 0.039471 0.13137384 0.39425242
-0.24420615 0.28971574 0.2990296 -0.6407143 -0.11000343 0.11868193 0.71291393 0.30764374
0.13102171 0.13751751 0.038165916 0.2464744 -0.79315543 -0.91284394 -0.5843 0.3182684
-0.06156593 -1.4539813 -0.06504908 -0.5249507 -0.21872999 -0.15903687 0.33420748 0.16894706
-0.13010135 0.079476506 0.05712557 -0.0038326848 0.7541761 0.7398488 0.5398065 -0.26199642
-0.34221652 -1.135566 0.1529906 -0.23030463 -0.4161975 -0.70555085 -0.3979651 -0.14845331
-0.09103232 0.18782403 0.07988455 -0.8050949 0.06644912 -0.8201495 0.3664935 0.16308402
-0.7270968 -0.9565754 -0.36096874 -0.46257156 -0.23594438 -0.090899296 0.054293413 0.22317074
-0.5376001 -0.8802332 0.059274834 -0.59309286 0.39872918 0.022999028 0.10525191 0.34448156
0.5003824 -1.1660223 0.41221893 -0.7307078 -0.001415117 -0.14453177 0.29282326 0.34199613
0.8887148 -1.1908501 0.21176928 -0.4646796 -0.1925008 0.182801 0.3339839 0.24663687
-0.43752933 -1.0039783 -0.24147244 -0.5132664 -0.1844743 0.050433263 0.07367774 0.14629942
0.08041057 -0.8445879 -0.2024601 -0.72416645 -0.15589194 0.16795945 0.05459089 0.41562605
0.24393049 -1.2921009 0.17220946 -0.54930156 -0.15222374 -0.2954208 0.102993056 0.18086518
0.051216718 -1.5689524 0.24938084 -0.6804362 0.15629594 0.36557677 0.18649143 -0.08771333
-0.7491992 0.7449799 -0.8471429 -0.044010527 -0.081329815 -0.23303884 -0.41482222 0.39816067
0.061007302 0.6204282 0.13490468 -0.61606383 0.4555921 -0.16408244 -0.4180723 0.22894542
-0.36031452 0.05372659 -0.09160055 -0.06794707 -0.40861925 -0.9186428 0.2005762 -0.07617018
-0.4132194 0.15682217 -0.20665522 0.28046826 0.41891727 0.4580879 0.09652851 -0.39394322
00000000: e440 c2bc f7c7 53bf 7155 15be 6101 1ebf
00000010: 936f babd 0309 cd3d 5316 803d eca5 d73e
00000020: c026 e3be faf2 51bf 79e8 43be ab18 b8be
00000030: 5cee 06bf e2f9 1bbf e453 43be 0650 853e
00000040: 445d 143e ca40 40be 855f cbbd 165e 4dbe
00000050: 8c8a b03e 2bd3 023f 9e5b c53d 95ea b03e
00000060: 2f19 5a3e d8b7 9bbe 9647 ce3e fa99 9cbe
00000070: c07c 18bf a3e6 eabe 0c51 46be 0cd3 d53e
00000080: 9d68 e7bd e6b5 91bf 38e9 38be d6f6 44bf
00000090: 59ec 8fbd 68ef 673e ddcc 9d3e bf9e 5d3e
000000a0: a1b3 103e a53f 9ebf 41ee e33d fd5a 3dbf
000000b0: b934 aabe f95e b6be 9a56 6e3e 5a71 bc3e
000000c0: 3bff a0be 839b edbd 5812 5b3d add1 b63d
000000d0: 54ff 1f3f 28bd 103f 7dc7 a03e 4813 e1be
000000e0: b144 c13d ce72 b9bf 7838 8abd 1fda 25bf
000000f0: 77ec 093e 933e 0c3e 90ec 21bc ba2f 4b3e
00000100: 0cb7 e53e d5da 0dbd 3355 a13d f6e5 d7bc
00000110: 225a 223f 795b 3a3f f2ae 26be db91 29be
00000120: add3 b1bc ce60 763f 10e4 d93e 7581 3e3f
00000130: 787b 0bbf 6ec3 edbe a56d a4be c989 cdbe
00000140: 9c7f 93be d37c ca3e 4353 893e 13fc 31bf
00000150: 4fbb c03e 201f 253f 1ab3 e33e 1383 dc3d
00000160: cb2f 1fbe 76f4 9b3c 0e7b 933d f4b3 1abd
00000170: 50d9 243f 93c1 363f 548c 953d cea6 c1be
00000180: 802a 923e 875a bb3d 30c1 283d 6f4f 23be
00000190: 814c 123f b90f 473f 79ac 883e 1daf 96be
000001a0: 982f 1dbf c93c 8cbf 609e 62be 940f 0dbf
000001b0: 8c20 69b9 58ac 213d dd86 063e 74db c93e
000001c0: 2d11 7abe 9f55 943e 681a 993e da05 24bf
000001d0: 7a49 e1bd 830f f33d 8781 363f 7b83 9d3e
000001e0: 8e2a 063e 64d1 0c3e dd53 1c3d c963 7c3e
000001f0: 3c0c 4bbf 24b0 69bf af94 15bf 13f4 a23e
00000200: 8e2c 7cbd 0f1c babf 7438 85bd 2b63 06bf
00000210: c1fa 5fbe 90da 22be 3e1d ab3e 7500 2d3e
00000220: 4a39 05be 94c4 a23d 80fc 693d c82d 7bbb
00000230: af11 413f bb66 3d3f c230 0a3f 6524 86be
00000240: 0137 afbe 3a5a 91bf 91a9 1c3e fad4 6bbe
00000250: d717 d5be fb9e 34bf 15c2 cbbe 2504 18be
00000260: 276f babd f154 403e 839a a33d b31a 4ebf
00000270: 7a16 883d 51f5 51bf 09a5 bb3e 7fff 263e
00000280: 0423 3abf 20e2 74bf e5d0 b8be 2ed6 ecbe
00000290: 679b 71be 6929 babd c562 5e3d df86 643e
000002a0: 29a0 09bf f756 61bf 2bca 723d efd4 17bf
000002b0: 3b26 cc3e 7568 bc3c 508e d73d e35f b03e
000002c0: 1019 003f 3840 95bf 5c0e d33e ab0f 3bbf
000002d0: 727b b9ba 2300 14be eeec 953e 1e1a af3e
000002e0: d082 633f c76d 98bf 0cda 583e 7cea edbe
000002f0: ee1e 45be 2f30 3b3e f0ff aa3e 608e 7c3e
00000300: d803 e0be 5c82 80bf 8d44 77be 6d65 03bf
00000310: d5e6 3cbe 1c93 4e3d 5be4 963d 84cf 153e
00000320: 4cae a43d ea36 58bf b351 4fbe f962 39bf
00000330: 23a2 1fbe 90fd 2b3e b29a 5f3d f0cc d43e
00000340: eac8 793e 9063 a5bf ad57 303e 079f 0cbf
00000350: 8ae0 1bbe 6541 97be 06ee d23d b934 393e
00000360: 9fc8 513d 6fd3 c8bf b15d 7f3e 1131 2ebf
00000370: 0b0c 203e e12c bb3e 9cf7 3e3e 0ca3 b3bd
00000380: 85cb 3fbf 01b7 3e3f 5bde 58bf 6244 34bd
00000390: 3f90 a6bd bca1 6ebe 9463 d4be b7db cb3e
000003a0: cbe2 793d 62d4 1e3f 7424 0a3e 5cb6 1dbf
000003b0: 5e43 e93e 3a05 28be 930d d6be ab70 6a3e
000003c0: 257b b8be 6a10 5c3d 1299 bbbd d527 8bbd
000003d0: 8b36 d1be 2d2c 6bbf d963 4d3e 1dff 9bbd
000003e0: 7e91 d3be fe95 203e 6d9d 53be 8999 8f3e
000003f0: 537c d63e 7f8a ea3e bdb0 c53d edb2 c9be

fc1.bias f4 [64]
0.022792 0.06454285 0.07681048 0.005575903 -0.0015136377 0.18905073 0.16560712 0.16071092
0.051216204 0.029345872 0.5919881 -0.024290645 -0.13173048 -0.014560251 0.6553726 0.043177113
0.3028603 -0.12137109 0.38714558 0.5445799 -0.14259428 0.047514316 -0.08000623 -0.13207102
0.053004377 -0.04002374 0.15180556 0.02101834 0.029743487 0.33536938 -0.029733133 0.01947322
-0.07466615 0.2468444 -0.18565218 0.20537049 0.020309983 0.23137219 -0.33543846 0.031247223
0.23014784 -0.010425877 0.16071822 0.213717 -0.072178386 0.06485056 0.770026 0.09654931
-0.16711329 0.051536288 -0.0159688 0.55869263 0.12273813 0.24534518 0.18167576 0.14905833
0.30480766 0.6590931 0.08271541 0.44879112 0.065207645 0.2195515 0.09674605 0.27400374
00000000: 4ab6 ba3c 0b2f 843d d04e 9d3d 11b6 b63b
00000010: 4165 c6ba 8496 413e ea94 293e 6791 243e
00000020: 15c8 513d c166 f03c 888c 173f 2dfd c6bc
00000030: 5be4 06be 1e8e 6ebc 80c6 273f 7cda 303d
00000040: 8110 9b3e 6891 f8bd f237 c63e 9769 0b3f
00000050: 3c04 12be 5f9e 423d 4eda a3bd a03d 07be
00000060: 1e1b 593d efef 23bd eb72 1b3e a72e ac3c
00000070: 9da8 f33c 89b5 ab3e e692 f3bc 4d86 9f3c
00000080: 91ea 98bd c7c4 7c3e 9b1b 3ebe a44c 523e
00000090: 1f61 a63c d5ec 6c3e 97be abbe 2dfa ff3c
000000a0: e0ab 6b3e 4cd1 2abc 5193 243e a1d8 5a3e
000000b0: 43d2 93bd 5fd0 843d 6d20 453f a5bb c53d
000000c0: bf1f 2bbe b717 533d 00d1 82bc 7b06 0f3f
000000d0: 215e fb3d c43b 7b3e 3609 3a3e bfa2 183e
000000e0: c00f 9c3e 53ba 283f b266 a93d f3c7 e53e
000000f0: 968b 853d 1cd2 603e cb22 c63d 384a 8c3e

fc2.weight f4 [64, 64]
0.042151973 0.25544563 0.1648153 0.40739265 0.17313558 0.22842112 0.2602455 0.28690147
0.1972601 0.42113617 -0.04527458 0.3308461 0.29637286 0.2899292 0.027965108 0.55594593
0.31380993 0.45964637 0.43315262 0.01721161 0.07666974 0.3690584 0.5035976 0.37200043
0.014983436 0.12448519 0.29281667 0.40956983 -0.10779576 -0.11645864 0.24613577 0.17918
-0.018168116 0.17803723 0.23290437 -0.0025436694 0.46379116 0.31539792 0.04433936 0.6005239
0.24586633 0.22231291 0.47937062 0.22416347 0.17419069 0.37038583 0.003824132 0.003901548
0.3619051 0.112913035 0.21839888 -0.13715455 0.23213622 0.37409028 0.4420806 0.18200256
0.21934149 -0.06590045 0.25879943 -0.057174295 0.101984255 0.22469257 0.0034877083 0.4035005
-0.10976636 -0.0019446329 0.005080298 -0.022259178 -0.115307 0.09592573 -0.089140974 0.0688054
-0.13799295 -0.02473258 0.021251867 -0.06819195 0.08419944 -0.11467995 -0.14767161 -0.0631196
-0.0011605723 0.098034725 -0.08133895 0.012460842 -0.046428237 -0.06004957 0.0716199 -0.135579
-0.021898182 0.07723126 -0.02989602 0.049182754 -0.03392281 0.0726296 -0.14706925 -0.025375918
-0.051746286 0.0049006087 0.044192936 0.080069065 -0.031429723 -0.041060656 0.085601404 -0.048696283
0.074344076 -0.12017788 -0.036161534 -0.03454191 0.021898402 0.068976186 -0.035685964 -0.11611192
0.061936527 0.025384575 0.050212413 -0.10146283 0.07173573 0.08355188 -0.01763275 -0.14571184
0.06615231 -0.12820669 -0.0015328167 -0.023814471 -0.074362256 0.029787628 -0.14534938 -0.001965896
0.0401299 0.39893815 0.12855797 0.35754842 0.19516142 0.4360941 0.3561941 0.21359241
0.17509356 0.2447651 -0.008954418 0.2893101 0.27986237 0.25024906 0.07082854 0.8038877
0.5559872 0.29535654 0.37091425 -0.091242164 0.090950295 0.27998585 0.54534626 0.23927687
0.24412087 0.13932341 0.45691264 0.43850106 -0.026640547 -0.047296695 0.19899017 0.41977665
0.056359824 0.12002907 0.24520989 0.0100585325 0.3279958 0.46119314 0.09910545 0.39337572
0.23526378 0.29869354 0.42187268 0.1407982 0.28168058 0.263081 -0.15051986 0.13612618
0.53400403 0.2895193 0.17154956 -0.022734188 0.35581335 0.56367034 0.35869256 0.066153936
0.21481581 0.02937381 0.1194525 0.009299523 0.2073846 0.31027663 0.070763186 0.5701331
0.10077924 0.3168577 0.11819745 -0.03264152 0.39484653 0.30576745 0.47701335 0.19410264
0.5382926 0.15685482 -0.031839296 0.3398045 0.2915979 0.34445676 -0.012080762 0.40807095
0.28265712 0.43610317 0.23555669 -0.025034776 0.2745517 0.1989503 0.26035443 0.47797117
0.45897937 0.2891225 0.36525905 0.32623652 0.36946595 -0.06775264 0.37993175 0.17623417
0.25917408 0.104595 0.2536329 0.05051014 0.06583501 0.5701134 0.12429814 -0.008986882
0.12276337 0.14746527 0.093205735 0.24479854 0.46299472 0.31041136 -0.19056493 0.25117195
0.609592 0.17726402 -0.61113495 0.1282564 0.48379603 0.4785523 0.34585336 0.21258228
0.22203529 0.20456809 0.27669945 -0.26052815 0.25942877 0.33454815 0.2473852 0.49112198
00000000: 8ca7 2c3d c5c9 823e 58c5 283e c595 d03e
00000010: 744a 313e 3ae7 693e e63e 853e c0e4 923e
00000020: 8dfe 493e 299f d73e d771 39bd a964 a93e
00000030: 2fbe 973e 9a71 943e 1517 e53c 7952 0e3f
00000040: b2ab a03e c556 eb3e 2ec6 dd3e 5dff 8c3c
00000050: 0605 9d3d 39f5 bc3e c6eb 003f d776 be3e
00000060: 167d 753c 17f2 fe3d 11ec 953e 23b3 d13e
00000070: 06c4 dcbd de81 eebd 040b 7c3e f67a 373e
00000080: 4dd5 94bc 644f 363e 7c7e 6e3e b1b3 26bb
00000090: 0976 ed3e d67b a13e 309d 353d efbb 193f
000000a0: 62c4 7b3e ffa5 633e 1170 f53e 1c8b 653e
000000b0: 0b5f 323e 36a3 bd3e 4a9e 7a3b 1db1 7f3b
000000c0: a04b b93e f33e e73d f5a3 5f3e 3e72 0cbe
000000d0: 1eb5 6d3e c388 bf3e 6358 e23e e15e 3a3e
000000e0: 0e9b 603e d1f6 86bd 5c81 843e 982f 6abd
000000f0: 1fdd d03d cf15 663e 0992 643b 9e97 ce3e
00000100: 2fcd e0bd 0de3 feba a178 a63b e158 b6bc
00000110: 1426 ecbd b674 c43d 8b8f b6bd d8e9 8c3d
00000120: 064e 0dbe fb9b cabc 6518 ae3c 39a8 8bbd
00000130: c270 ac3d 52dd eabd 3a37 17be d944 81bd
00000140: 581e 98ba 6ec6 c83d 0995 a6bd 8f28 4c3c
00000150: 892b 3ebd 8af6 75bd 74ad 923d 39d5 0abe
00000160: d163 b3bc 6c2b 9e3d 80e8 f4bc db73 493d
00000170: a5f2 0abd d4be 943d 5299 16be 28e1 cfbc
00000180: eaf3 53bd 4995 a03b a703 353d 40fb a33d
00000190: 74bc 00bd 382f 28bd ca4f af3d c175 47bd
000001a0: b541 983d d21f f6bd 1e1e 14bd d17b 0dbd
000001b0: 4764 b33c 6343 8d3d 722b 12bd 16cc edbd
000001c0: 28b1 7d3d 50f3 cf3c 88ab 4d3d bfcb cfbd
000001d0: 2fea 923d 401d ab3d 8f72 90bc 7c35 15be
000001e0: dd7a 873d 9d48 03be cbe8 c8ba 9116 c3bc
000001f0: 3d4b 98bd 2f05 f43c 78d6 14be 43d6 00bb
00000200: 405f 243d 9f41 cc3e b3a4 033e 9610 b73e
00000210: 65d8 473e ba47 df3e 135f b63e f8b7 5a3e
00000220: ba4b 333e b4a3 7a3e 8db5 12bc 7420 943e
00000230: 1f4a 8f3e a520 803e 8e0e 913d 96cb 4d3f
00000240: 2d55 0e3f f938 973e 79e8 bd3e 2cdd babd
00000250: 2644 ba3d 4e5a 8f3e d09b 0b3f ff04 753e
00000260: d2fa 793e ccaa 0e3e 74f0 e93e 3683 e03e
00000270: 473d dabc 2eba 41bd 14c4 4b3e f7ec d63e
00000280: 8fd9 663d cdd1 f53d 4d18 7b3e 8bcc 243c
00000290: 11ef a73e 8221 ec3e ccf7 ca3d 8b68 c93e
000002a0: fde8 703e 5cee 983e b2ff d73e 672d 103e
000002b0: 7038 903e 8eb2 863e e121 1abe a964 0b3e
000002c0: 7db4 083f e03b 943e b0aa 2f3e 0c3d babc
000002d0: 2b2d b63e b34c 103f 8da6 b73e b77b 873d
000002e0: adf8 5b3e 58a1 f03c 83a3 f43d 075d 183c
000002f0: a15c 543e 94dc 9e3e 4aec 903d 3ef4 113f
00000300: 5965 ce3d 2c3b a23e 8111 f23d 1db3 05bd
00000310: 5329 ca3e 8d8d 9c3e 183b f43e d8c2 463e
00000320: 8bcd 093f 8d9e 203e ec69 02bd dbfa ad3e
00000330: 524c 953e a35c b03e 63ee 45bc adee d03e
00000340: 6fb8 903e ea48 df3e c635 713e bb15 cdbc
00000350: 0a92 8c3e a1b9 4b3e 2d4d 853e a3b8 f43e
00000360: 58ff ea3e dd07 943e 3c03 bb3e 7908 a73e
00000370: a42a bd3e e5c1 8abd 6a86 c23e bb76 343e
00000380: 77b2 843e e735 d63d 2cdc 813e b8e3 4e3d
00000390: 81d4 863d f4f2 113f 0690 fe3d b73d 13bc
000003a0: 5d6b fb3d 2301 173e a6e2 be3d 78ac 7a3e
000003b0: a50d ed3e 3dee 9e3e 7423 43be 9c99 803e
000003c0: 390e 1c3f b384 353e 5773 1cbf a555 033e
000003d0: 1db4 f73e cf04 f53e b113 b13e 2baf 593e
000003e0: 385d 633e 4c7a 513e 8dab 8d3e f263 85be
000003f0: d9d3 843e e549 ab3e 8c52 7d3e 5774 fb3e

fc2.bias f4 [64]
0.055943314 -0.15889357 -0.09286206 0.08702201 -0.0008788451 -0.0025024572 -0.030902853 -0.018770976
0.02905278 -0.10121633 -0.044544674 -0.026795968 -0.094464675 -0.020502323 0.022438072 0.5484268
-0.00375468 -0.013851206 0.104071796 0.065764345 -0.05026787 -0.09180343 -0.05870808 0.13656396
-0.05894423 0.5707513 0.012547232 -0.054648474 0.11629257 -0.10670782 0.16918832 0.6124282
-0.09675678 0.166089 -0.08024039 -0.10587314 -0.0745435 0.07081471 -0.12145918 0.037588928
0.01952812 0.0739306 0.08110312 0.026389685 -0.1089005 0.09789258 -0.09216434 0.026840877
0.009086503 -0.027458442 0.009662511 -0.10716689 0.18570735 0.15357658 -0.010400505 0.64651823
-0.018765995 0.0767352 -0.2018481 -0.024823217 -0.13665776 -0.07348039 -0.05016493 0.05480692
00000000: d124 653d ffb4 22be 772e bebd 9838 b23d
00000010: 4c62 66ba 4400 24bb fb27 fdbc 97c5 99bc
00000020: 1800 ee3c 824a cfbd 7a74 36bd 3883 dbbc
00000030: b276 c1bd 7df4 a7bc 0cd0 b73c b365 0c3f
00000040: 1411 76bb 2bf0 62bc 9823 d53d 75af 863d
00000050: afe5 4dbd 7003 bcbd e277 70bd 6cd7 0b3e
00000060: 816f 71bd c21c 123f e892 4d3c 14d7 5fbd
00000070: cd2a ee3d a189 dabd b43f 2d3e 18c8 1c3f
00000080: 6b28 c6bd 3c13 2a3e 1355 a4bd 04d4 d8bd
00000090: 43aa 98bd 4d07 913d 97bf f8bd d9f6 193d
000000a0: 70f9 9f3c ed68 973d 6519 a63d 2e2f d83c
000000b0: 3a07 dfbd e87b c83d a8c0 bcbd 66e1 db3c
000000c0: 8edf 143c 87f0 e0bc 824f 1e3c 507a dbbd
000000d0: 112a 3e3e 2e43 1d3e e166 2abc 3882 253f
000000e0: 25bb 99bc 5827 9d3d 45b1 4ebe 0f5a cbbc
000000f0: 03f0 0bbe e37c 96bd be79 4dbd 397d 603d

fc3.weight f4 [4, 64]
-0.3175275 0.025581283 -0.33581737 -0.2865931 -0.25903073 -0.3471391 0.06661142 0.062411033
-0.09717506 0.038339898 -0.33117363 -0.40432078 -0.27891967 -0.32176965 -0.4116856 0.6396556
0.04909848 -0.40899605 -0.03514612 -0.2368957 -0.30401242 -0.23215118 0.09032147 1.8679322
-0.2821055 1.2774394 -0.06654182 -0.40491602 -0.29048538 -0.42236966 0.1591316 1.2720901
-0.29604596 -0.050369546 -0.2386233 -0.10754472 -0.11066329 -0.16400108 -0.3892005 -0.2561964
-0.1996201 0.12818485 -0.020871542 -0.014410905 0.04477447 -0.032703206 0.07452555 -0.31159285
-0.3871445 -0.10967334 0.0335171 -0.27478358 0.33654487 -0.059656616 -0.21472773 0.99502116
-0.43639952 -0.2586825 -0.32810885 -0.25618574 -0.3020101 -0.27604115 0.06099545 -0.29423958
-0.028647628 0.023138538 -0.13769802 -0.2923962 -0.35679677 -0.28902045 -0.05212776 -0.061765783
0.11132081 -0.064157665 -0.31494963 -0.27589276 -0.11196028 -0.31794733 -0.14849992 0.5246327
-0.030114083 -0.17612396 -0.054004945 -0.30926517 -0.25535727 -0.11010953 0.058642216 1.7963918
-0.29760537 1.1950359 -0.23279394 -0.20637146 -0.34040108 -0.37604818 -0.32831863 1.6081557
-0.24158032 -0.37521213 -0.29475105 0.12477073 -0.44013712 -0.39301968 -0.101339296 0.09361539
-0.41145834 -0.34391677 -0.29028952 0.41647413 -0.067721605 0.010687441 0.10204086 -0.30582502
-0.30034685 -0.37599263 -0.00804114 -0.09336072 0.060545992 -0.0062788725 -0.33657864 0.89696985
-0.31636998 -0.14739922 0.27195394 -0.3889597 -0.3925932 -0.19184676 0.10033038 -0.25955772
-0.49842298 -0.088157356 -0.42177176 -0.07839033 0.012945564 -0.17106004 0.00804801 0.06346613
0.085465044 0.07464154 -0.12204851 -0.12434673 -0.002057126 -0.32514304 -0.42857468 0.6036183
0.029553855 -0.523762 -0.54250526 -0.33916986 -0.07194069 -0.15856381 -0.05678276 2.2353835
-0.22986117 0.37070045 -0.55089694 -0.3581748 -0.22712176 -0.10082755 -0.3163202 1.3627926
-0.12906002 -0.07552297 -0.21885028 -0.05058533 -0.07468936 -0.2297932 -0.17097615 -0.21022718
-0.33981332 -0.4462285 -0.49881217 0.4225323 0.015865382 -0.0031429976 -0.07443015 -0.28890735
-0.23683941 -0.45569345 -0.10649076 -0.53306067 -0.5728696 -0.71942466 -0.14807397 1.6233485
-0.060670946 -0.24932726 0.10387446 -0.09792359 -0.16961703 -0.29997283 0.1209924 -0.31446338
-0.22454835 0.076477855 -0.20206393 -0.4195556 -0.32306817 -0.30465057 0.053135626 -0.05446104
0.01797834 -0.043881357 -0.32849696 -0.13998999 -0.4226096 -0.36581275 -0.05018826 1.4024919
-0.014141875 -0.16475698 -0.00987889 -0.3696351 -0.35506716 -0.29255134 0.023972152 1.5439854
-0.3210326 0.8470018 -0.13347587 -0.37672397 -0.38574946 -0.35615617 0.034386914 1.2592069
-0.34528425 -0.051026337 -0.3830245 -0.07586983 -0.07116208 -0.3237627 -0.34404576 -0.3413704
-0.23811077 0.050621863 -0.11893797 -0.23558398 0.1024694 -0.11884415 0.039312135 -0.32412028
-0.34787646 -0.0059069693 -0.12260781 -0.29796994 0.54714173 0.13943933 -0.38983023 1.0188609
-0.16078305 -0.41784412 0.039492294 -0.34058648 -0.1909931 -0.42878214 0.078548364 -0.29380572
00000000: f792 a2be d78f d13c 41f0 abbe 55bc 92be
00000010: ad9f 84be 37bc b1be 916b 883d b6a2 7f3d
00000020: b803 c7bd 4c0a 1d3d 978f a9be 2203 cfbe
00000030: 8fce 8ebe febe a4be 74c8 d2be 78c0 233f
00000040: 7d1b 493d ee67 d1be 61f5 0fbd c994 72be
00000050: 84a7 9bbe 0ab9 6dbe 76fa b83d 6718 ef3f
00000060: 2270 90be 2283 a33f 1447 88bd 2751 cfbe
00000070: 80ba 94be d640 d8be 65f3 223e d9d3 a23f
00000080: 5693 97be 4c50 4ebd ab59 74be 6840 dcbd
00000090: 6fa3 e2bd e6ef 27be 4a45 c7be 2d2c 83be
000000a0: 3669 4cbe e442 033e ccfa aabc b71b 6cbc
000000b0: 6f65 373d ccf3 05bd daa0 983d 1989 9fbe
000000c0: ce37 c6be 6b9c e0bd 3a49 093d 6fb0 8cbe
000000d0: 9c4f ac3e 7f5a 74bd 96e1 5bbe b5b9 7e3f
000000e0: c26f dfbe 0872 84be e2fd a7be c72a 83be
000000f0: 11a1 9abe 4455 8dbe 5dd6 793d 92a6 96be
00000100: 6eae eabc 088d bd3c b600 0dbe f4b4 95be
00000110: 11ae b6be 7dfa 93be eb83 55bd 1efe 7cbd
00000120: 2afc e33d 1865 83bd 1441 a1be d141 8dbe
00000130: 6e4b e5bd fec9 a2be 5d10 18be 544e 063f
00000140: cfb1 f6bc d759 34be 4a34 5dbd 0158 9ebe
00000150: 30be 82be 1b81 e1bd d232 703d 2bf0 e53f
00000160: bb5f 98be f0f6 983f 8961 6ebe 0a53 53be
00000170: 0d49 aebe 6389 c0be 6119 a8be 0cd8 cd3f
00000180: d560 77be ce1b c0be 9ce9 96be cc87 ff3d
00000190: a759 e1be e039 c9be fa8a cfbd 6db9 bf3d
000001a0: abaa d2be dc15 b0be d4a0 94be 193c d53e
000001b0: a0b1 8abd 601a 2f3c ccfa d03d 1995 9cbe
000001c0: 10c7 99be 1b82 c0be fcbe 03bc e833 bfbd
000001d0: 13ff 773d 00bf cdbb 0954 acbe d19f 653f
000001e0: 3ffb a1be d2ef 16be 8c3d 8b3e ba25 c7be
000001f0: fa01 c9be 7a73 44be 047a cd3d c0e4 84be
00000200: 4c31 ffbe d88b b4bd 78f2 d7be 1c8b a0bd
00000210: a219 543c 5d2a 2fbe cddb 033c 88fa 813d
00000220: 4c08 af3d aadd 983d 92f4 f9bd 80a9 febd
00000230: d9d0 06bb 2679 a6be 246e dbbe bb86 1a3f
00000240: ed1a f23c 4415 06bf a0e1 0abf aca7 adbe
00000250: a455 93bd 8d5e 22be 0a95 68bd 8610 0f40
00000260: ba60 6bbe 73cc bd3e 9507 0dbf b062 b7be
00000270: 9b92 68be ad7e cebd b9f4 a1be fd6f ae3f
00000280: 4f28 04be c9ab 9abd 4a1a 60be 9032 4fbd
00000290: bcf6 98bd e94e 6bbe 5f14 2fbe cb45 57be
000002a0: 03fc adbe 1078 e4be 4f64 ffbe 2756 d83e
000002b0: 1ef8 813c c0fa 4dbb d66e 98bd aaeb 93be
000002c0: 0886 72be a750 e9be d417 dabd aa76 08bf
000002d0: 95a7 12bf 372c 38bf b4a0 17be e2c9 cf3f
000002e0: 1982 78bd a54f 7fbe 22bc d43d 2a8c c8bd
000002f0: 16b0 2dbe 0a96 99be ddca f73d 5801 a1be
00000300: 01f0 65be 6ca0 9c3d d9e9 4ebe fecf d6be
00000310: 3169 a5be 29fb 9bbe bea4 593d 8a12 5fbd
00000320: 5047 933c f0bc 33bd c130 a8be 8959 0fbe
00000330: 4960 d8be cf4b bbbe 3492 4dbd db84 b33f
00000340: 53b3 67bc 0eb6 28be 11db 21bc d040 bdbe
00000350: 5dcb b5be 4ac9 95be 3f61 c43c 50a1 c53f
00000360: 635e a4be 1cd5 583f e6ad 08be f7e1 c0be
00000370: f480 c5be 1a5a b6be 4bd9 0c3d b12d a13f
00000380: 19c9 b0be fe00 51bd ca1b c4be a461 9bbd
00000390: 6dbd 91bd 3ac4 a5be c426 b0be 1ac8 aebe
000003a0: 4fd3 73be df58 4f3d c095 f3bd ed3c 71be
000003b0: 7adb d13d 9064 f3bd c305 213d 18f3 a5be
000003c0: dd1c b2be 408f c1bb ce19 fbbd 848f 98be
000003d0: 7b11 0c3f 2fc9 0e3e d497 c7be 096a 823f
000003e0: 50a4 24be aaef d5be acc2 213d 5a61 aebe
000003f0: b293 43be 5589 dbbe f7dd a03d b46d 96be

fc3.bias f4 [4]
0.23575646 0.020016104 0.11615882 0.03846741
00000000: 246a 713e d0f8 a33c ade4 ed3d 0190 1d3d
