checkpoint.pth (torch, 21847 bytes, 6 tensors)

fc1.weight f4 [64, 8]
000000 98 f4 4b 3d 57 cd 63 bf b8 74 55 be a9 bf da be
       0.04979381 -0.889852 -0.20845306 -0.4272435
000010 3c a5 18 be d6 07 4f 3b 2e d5 56 3e a1 28 2c 3f
       -0.14906782 0.0031590364 0.20979759 0.67249495
000020 b8 4e fd bd c5 9d 7d be 6d 50 a9 bd 3b 93 7e be
       -0.1236853 -0.24767216 -0.08267293 -0.24860851
000030 ad 34 dc be ec 5d 11 bf f4 42 09 3c 0c cf c3 3e
       -0.43008938 -0.5678394 0.008377779 0.38243902
000040 06 ba d5 3d a7 41 0c be 6b d3 da bd f4 dc 27 be
       0.10435872 -0.1369692 -0.10684856 -0.1639288
000050 03 0c 20 3f 9a 84 06 3f 0b 53 22 3e ff ef 26 3f
       0.6251833 0.52546084 0.15851991 0.65209955
000060 3f 3e 9e 3d a3 bd 04 be 01 83 e1 3e 35 58 23 bf
       0.07726716 -0.12962966 0.4404526 -0.6380647
000070 9b d3 a4 be fe 8e f4 be 9e fe ec 3c d8 8a 34 3f
       -0.32192692 -0.47765344 0.028930005 0.7052436
000080 96 b1 1d be ac 5f 9f bf 45 a8 27 be cf c7 07 bf
       -0.15399775 -1.2451072 -0.16372783 -0.5303926
000090 0e 76 4c 3d 01 78 9b 3e 78 79 d0 3e 9d 0d 15 3f
       0.049917273 0.30364993 0.40717673 0.582239
0000a0 fa 20 d2 3c e0 70 af bf 7b cd 99 3d cf 67 07 bf
       0.02565049 -1.3706322 0.075098954 -0.52892774
0000b0 f5 18 30 be d8 c1 b0 be 9f 42 eb 3e 4d 33 12 3f
       -0.1719702 -0.3452289 0.45949265 0.5710953
0000c0 26 a6 65 be 38 1d 68 bf 26 2b 7b 3e ee 48 e0 3b
       -0.22426662 -0.90669584 0.24528179 0.0068446314
0000d0 72 7c 09 3e c3 50 86 bd a4 c9 07 3f 21 92 d2 bd
       0.13426378 -0.06558373 0.53042054 -0.10281778
0000e0 1a ef b6 3c b8 c9 b1 bf 63 ae 52 be 0d 87 d6 be
       0.02233081 -1.3889685 -0.20574336 -0.4189991
0000f0 8e 47 db 3e 9c b3 9d 3c b3 0b 3c bd a1 f0 05 3f
       0.4282803 0.019250683 -0.045909595 0.52320296
000100 90 ba 49 3e a7 a9 1b 3f 21 fd ef 3d 51 b4 80 be
       0.19700074 0.60805744 0.117182024 -0.2513757
000110 59 7b 99 3e 1f f9 69 3f cb 3e e7 be ab 0a 98 be
       0.2997692 0.91395754 -0.45165095 -0.2969564
000120 e3 d4 f9 3d 41 ea 27 3f a8 db cc 3e de 15 50 3f
       0.12198808 0.6559182 0.40011334 0.81283367
000130 e0 19 83 be c4 8c 28 bf 94 e7 aa be 4b 7e 62 be
       -0.2560568 -0.6583979 -0.33379805 -0.2211849
000140 cd b1 a6 be 8f 6f c0 3e c4 3d 03 3f 34 29 55 bf
       -0.32557526 0.37585112 0.5126612 -0.83265996
000150 5e 41 32 bd 0f 19 8a be 2e 08 c1 3d 0d 38 1f 3e
       -0.04351937 -0.26972243 0.09425388 0.15548725
000160 a1 86 fe 3e 38 7f 47 bf c4 c0 d7 3e 1d 7c 12 be
       0.4971209 -0.77928495 0.42139256 -0.14305158
000170 80 b6 91 3e 27 9f db 3e 33 e9 5a be 67 ca e7 bd
       0.2845955 0.4289486 -0.21378021 -0.11317902
000180 7a 67 9c 3e 7f 3b 4c 3f 14 6e 67 bd e2 b5 f6 be
       0.30547696 0.79778284 -0.056501463 -0.4818564
000190 9a a3 17 3f 62 a0 5d 3f 16 a4 d4 be 39 58 05 be
       0.5923401 0.8657285 -0.41531438 -0.13021936
0001a0 24 4c 9f be 03 88 b1 3e 86 04 e8 be c0 92 11 bf
       -0.31112778 0.3467408 -0.4531595 -0.5686455
0001b0 1f 83 bb 3e 2d 19 96 bc ee 03 34 bd e4 16 1b 3f
       0.36623475 -0.018322552 -0.04394906 0.60581803
0001c0 81 8d 89 be 27 4f e2 3e 8d 4f ae 3e 5f fb 4a bf
       -0.2686577 0.44201013 0.34045067 -0.7928981
0001d0 aa e4 66 be 0f 68 bf bc ae 2e 2d 3e 5a ab c8 3e
       -0.22548166 -0.023365049 0.16912338 0.3919323
0001e0 24 49 34 3e d4 f5 2b bd de cc b7 bd c6 39 bf 3b
       0.17606026 -0.041982487 -0.08974622 0.0058357446
0001f0 9c 0e 47 bf b2 a7 49 bf 73 3e fa 3d 3a d7 73 3e
       -0.7775667 -0.7877151 0.122189425 0.23812571
000200 39 ee 65 bd cc 07 92 bf 94 0a bc bc 89 d3 70 be
       -0.05613539 -1.140863 -0.022954263 -0.23518194
000210 e2 f1 06 be 9e ba cd 3d c4 40 f2 3e 5d 30 8f 3e
       -0.13178208 0.1004536 0.47315037 0.27966586
000220 04 26 c7 3d 53 90 17 3c 90 3d 32 3d b6 86 a3 3d
       0.09724048 0.009250718 0.04351574 0.079846784
000230 40 1f 5b 3f 9e cd 5b 3f 83 d2 32 3f ee 6b 86 3c
       0.8559456 0.8586062 0.69852465 0.016408887
000240 d9 6c 60 3d f1 81 a2 3d 80 1f dc 3e 67 0d 45 be
       0.054791305 0.079349406 0.42992783 -0.19243394
000250 42 6a 3a bf 9e 82 80 bf ed 66 80 bd 92 80 26 bf
       -0.72818387 -1.0039861 -0.062696315 -0.6503993
000260 04 c4 5c bc 4d f0 0c 3d b1 73 bb 3e c0 51 61 bf
       -0.013474468 0.034408856 0.36611703 -0.88015366
000270 ad 93 9f 3c ed 02 13 bf cf 37 f1 3d ff 73 5b 3e
       0.019479597 -0.5742634 0.11778223 0.21430968
000280 79 7a ce bd a3 fa 8e bf 9a 9c 74 be a6 aa 0c bf
       -0.100819536 -1.1170238 -0.23887864 -0.5494789
000290 7e 27 36 bd 4f a2 31 be ef 6d e0 bd bb 9e fe 3e
       -0.044471256 -0.17347072 -0.10958468 0.49730477
0002a0 8d 07 b6 be ea 3e 33 bf ef 41 95 3e ac c7 b7 be
       -0.35552636 -0.70017874 0.29151866 -0.35894525
0002b0 60 59 5c 3e 88 98 55 be d0 af a9 be ba 55 e5 3e
       0.21518469 -0.20858967 -0.33141947 0.44791967
0002c0 2b 50 80 3d 5f 0c a7 bf 88 8f bf 3e 60 66 0e bf
       0.06265291 -1.305065 0.37414193 -0.5562496
0002d0 d2 9a c6 3d ef 02 70 be 72 c3 07 3f 8f 1f ef 3e
       0.096974984 -0.23438619 0.530326 0.46703765
0002e0 47 ae a0 3e 04 84 6b bf 87 37 0f 3d 36 ad 8e be
       0.31382963 -0.91998315 0.034965064 -0.27866524
0002f0 43 0f 80 be dd d4 57 3e 39 09 0e 3f c7 4b 13 3f
       -0.25011644 0.21077295 0.5548282 0.575375
000300 5f 1d dc be 50 40 70 bc 5b 4c 24 bf fa 77 0f bf
       -0.42991158 -0.014663771 -0.6417901 -0.56042445
000310 0c 39 00 be d7 ac dd 3d cf b4 11 be d3 e4 94 3e
       -0.12521762 0.10823982 -0.14229129 0.2908083
000320 c5 50 60 be c4 ac e9 3e 43 4f 26 bf 85 c9 fe bd
       -0.21905811 0.45639622 -0.64964694 -0.124407806
000330 44 94 83 be 77 19 a2 be d9 1c 58 be cd 29 24 3f
       -0.25699055 -0.31660053 -0.21104755 0.6412628
000340 f1 23 04 3e 03 c9 81 bf bb 61 ed 3c bc a9 b2 be
       0.12904336 -1.0139469 0.028977266 -0.34895122
000350 bc d2 03 3d a4 ac 90 be 05 49 89 3e f4 c0 db 3e
       0.032183394 -0.28256714 0.26813522 0.4292065
000360 13 f5 c8 bd 03 fc b3 bf fc c2 d7 3e c1 76 da be
       -0.09812369 -1.4061283 0.4214095 -0.42668727
000370 20 d5 5a bd 0c 07 89 3e e4 1a b9 3e f6 49 6b 3e
       -0.053425908 0.2676319 0.36153328 0.22977433
000380 e0 d5 d1 be 6a bd a2 3e 2b 8d 0b bf 82 55 4d be
       -0.40983486 0.31785136 -0.5451228 -0.2005215
000390 b4 9e e0 3d e7 4c 15 be bb 42 02 3e d6 ef 30 3f
       0.1096777 -0.14580117 0.12720768 0.6911596
0003a0 b8 46 5f 3d 96 93 62 bd cb 54 8d 3e c0 53 09 bf
       0.054510802 -0.05531653 0.27603754 -0.5364342
0003b0 b6 fe d1 bd 9c 65 34 bf d5 58 c1 3c e2 ea f0 3e
       -0.102536604 -0.70467544 0.023601929 0.470542
0003c0 09 8b ad 3d 97 eb 2b bf fc 89 31 bd 55 70 57 be
       0.084737845 -0.67156357 -0.043344483 -0.21038945
0003d0 31 cc 01 3e 73 05 ed be 60 af 0f 3f 8b 45 31 3d
       0.12675549 -0.4629322 0.56126976 0.043279212
0003e0 d4 35 6b be e9 e5 9d 3d 9e d3 0d bf a0 35 13 3e
       -0.22969753 0.077098675 -0.5540103 0.14375925
0003f0 88 75 0e 3f 50 fa 83 be f4 fc dd be f8 db ad be
       0.5564809 -0.2577691 -0.4335705 -0.33956885

fc1.bias f4 [64]
000000 2f 72 ea 3b ad 1a 83 3d bb c0 59 3e c7 2c 89 3e
       0.007154725 0.064015724 0.21264927 0.26791975
000010 3b 0a b4 3c 01 70 10 3e ef 9d d3 3e b3 3e 3d 3e
       0.021977535 0.14105226 0.4133143 0.18480949
000020 6a 9e b8 3e 3a fa f0 3d 63 8f 9d 3e 3f be 54 3d
       0.3605836 0.11766477 0.30773458 0.051939245
000030 9e c3 a1 3b a9 bd c1 3d e7 f6 05 3f 6b e3 8d 3d
       0.0049366495 0.09460003 0.5232987 0.06928142
000040 a7 7f 80 3e 41 87 ca bc 38 65 24 3f 1c 6a 17 3f
       0.2509739 -0.024722697 0.6421695 0.59146285
000050 3d 0f b5 bd e2 e0 6d bb 94 ef 7b bd 1b 79 86 3d
       -0.08840797 -0.003629737 -0.061507776 0.06566068
000060 1c cd 96 3c b0 3e 7e be 41 96 c4 3d e5 c1 f9 3d
       0.01840835 -0.24828601 0.09598971 0.121951856
000070 94 91 1e bd bf 45 39 3e df 18 d5 3d 28 de 8b bd
       -0.038713053 0.18093012 0.104051344 -0.06829482
000080 7a 00 e9 3d b6 25 fd 3e ed 0a 27 bd 4e e3 b4 3d
       0.11377044 0.49442834 -0.040781904 0.088324174
000090 56 3e 16 bd 16 43 da 3e 97 be ab be 46 57 bf be
       -0.036680542 0.42629308 -0.33543846 -0.37371272
0000a0 d2 17 d8 3e 3f b4 3f 3d f6 7f 32 3e 9e 44 8c 3e
       0.42205673 0.046802755 0.17431626 0.273961
0000b0 4e fd c0 3d 2c be 1c 3e 88 0d 19 3f 61 61 2a 3e
       0.09423314 0.1530692 0.5978627 0.1663871
0000c0 84 c1 85 bd 72 64 23 3d 5b 25 1f 3e c6 15 b7 3e
       -0.06531051 0.039890714 0.15541594 0.357588
0000d0 b1 72 e0 3d 25 f2 c4 3e 57 fe e6 3d df 61 4f 3d
       0.10959376 0.38465992 0.1127898 0.050630447
0000e0 af c8 09 3f 4a 3d ae 3e 6f 23 c8 3e c3 3d a2 3e
       0.53821844 0.34031135 0.39089534 0.31687745
0000f0 88 55 61 3e 96 2a a6 3d 40 43 5b 3e 7a 7d d3 3e
       0.22005284 0.081135914 0.21412373 0.4130667

fc2.weight f4 [64, 64]
000000 6c 72 61 3d 15 5a 85 3d 5e 84 d5 bc fa 1c 76 3e
       0.05504076 0.065113224 -0.026064094 0.24034491
000010 07 09 b1 3d 01 63 c6 3d eb 64 40 3e 3e 28 3d 3e
       0.086443 0.09686852 0.18788497 0.18472382
000020 1d e9 ce be af e1 27 3e 47 5a 09 3e be bc b0 bc
       -0.40412226 0.16394685 0.13413344 -0.021574374
000030 60 72 9e be 8a 1a 6b bd e0 85 a5 3d aa b5 07 3e
       -0.30946636 -0.057398356 0.08082175 0.13252893
000040 a9 31 11 3e a7 9a d3 3e 92 9c 81 3e 3e 84 35 3e
       0.141791 0.41328928 0.25314766 0.17726228
000050 e4 d4 10 bd bd a6 96 3e 73 c5 b5 3e d9 bb 84 3e
       -0.03535928 0.29424086 0.35502204 0.25924566
000060 19 74 e3 be 4e 6c 72 be ff e7 42 3e 77 72 9e 3e
       -0.44424513 -0.23674127 0.19033812 0.30946705
000070 7c d2 50 be 42 b8 30 3d 55 ae 82 3e 49 50 03 3e
       -0.20392793 0.043144472 0.2552363 0.12823595
000080 9c ba b5 bc a9 13 62 be ee 46 81 bd ba 21 1f be
       -0.022183709 -0.22077812 -0.06312357 -0.1554021
000090 98 ef 88 3e 6a 3f 0c 3e 30 9d 35 3d c0 7a eb 3d
       0.26745296 0.13696066 0.04433936 0.11498022
0000a0 06 02 0a 3e 66 18 d0 3d ac d9 b2 3e b5 a7 c0 3d
       0.13477334 0.10160904 0.34931695 0.094069876
0000b0 0d d1 07 3f 7d 85 6c 3e 24 eb 75 3e 36 16 03 3d
       0.5305336 0.23097797 0.2401548 0.032003604
0000c0 c6 46 32 3f dd 6d c3 3d 8d 93 79 3e 6e 75 81 be
       0.6963924 0.09542439 0.24372692 -0.25284904
0000d0 b5 0c 07 3e 58 59 18 3e 41 5a a6 3e 2c 1c be be
       0.13188441 0.14877832 0.32490733 -0.37130868
0000e0 d3 bb 6b 3e 92 dc 22 3e aa 6b 2b 3e 6a c5 01 3d
       0.23020868 0.15904453 0.1674029 0.03168241
0000f0 62 ac ae bb 32 56 91 3d ce af 23 3e fd 34 8f 3e
       -0.005330608 0.070965186 0.15985033 0.27970114
000100 62 ae bd bd 42 c1 61 3c 0f a9 a3 3c 55 ac 43 bc
       -0.092617765 0.013778986 0.019978074 -0.011942943
000110 48 d3 d3 bd 07 b3 bd 3d ff f6 a4 bd dc c4 a3 3d
       -0.10343033 0.092626624 -0.08054923 0.07996532
000120 61 36 fb bd 58 52 f6 bc 18 5c 4e 3d 7c 31 51 bd
       -0.12266231 -0.030068561 0.050380796 -0.051072583
000130 ec 4c a9 3d 9d 86 db bd 56 ec fb bd a1 e2 77 bd
       0.08266625 -0.10719035 -0.12300937 -0.060518865
000140 b0 87 a5 3c dd b7 ca 3d 0e 39 8e bd 9c ed d8 3c
       0.020206302 0.098983504 -0.06944476 0.026480488
000150 b2 c0 5b bd ce 3f 56 bd 9b 10 8b 3d f8 ce e5 bd
       -0.053650565 -0.052306943 0.067902766 -0.11221117
000160 bc 58 ec bb e7 7e ca 3d 1c 98 ee bc 1c d7 9e 3d
       -0.0072127264 0.09887486 -0.029125266 0.077558726
000170 9a 73 71 bd 02 08 a8 3d c0 8a 0c be 8a a3 1e bd
       -0.058948137 0.08204652 -0.13724804 -0.03873018
000180 7e a8 25 bd d8 33 9b 3c e0 4d ed 3c 02 e9 ae 3d
       -0.04044389 0.01894562 0.028967798 0.085405365
000190 26 2a ef bc e7 d7 db bc ca 4f af 3d 90 88 0a bd
       -0.029194903 -0.026836349 0.085601404 -0.033821642
0001a0 c3 82 b7 3d 82 17 d8 bd 33 91 a5 bc b5 7c 3b bc
       0.08960488 -0.10551359 -0.020210838 -0.011443307
0001b0 a0 75 64 3d bd 5e 99 3d d0 4e a2 bc a9 cf f2 bd
       0.05577624 0.07488773 -0.019812971 -0.11856014
0001c0 28 b1 7d 3d 65 b5 db 3c 88 ab 4d 3d 4b 53 c6 bd
       0.061936527 0.026819894 0.050212413 -0.096838556
0001d0 ae c2 a4 3d 42 f0 c6 3d a1 8c 1c bc 08 62 02 be
       0.08044945 0.09713794 -0.009555013 -0.12732708
0001e0 1d 6c 80 3d e4 b1 d3 bd 89 e8 24 3c 32 4d 0e bb
       0.06270621 -0.10336664 0.010065206 -0.0021713492
0001f0 df 77 8d bd b0 46 32 3d 8a f9 e4 bd 40 1d 88 3c
       -0.06907629 0.043524444 -0.11180408 0.01661551
000200 f4 ae 91 3d 2f 93 3b 3e 3b dc f3 3c 8f 2d 71 3e
       0.07113448 0.18317865 0.0297681 0.23552535
000210 34 98 f6 3d 84 d2 9d 3e 0c b0 90 3e d2 a7 1b 3e
       0.12040749 0.30824673 0.28259313 0.15200737
000220 80 cc 06 bf 4d 39 4f 3e c4 81 78 3e 72 7a 34 3e
       -0.5265579 0.20236702 0.24268252 0.17624834
000230 55 8c c6 be 01 e8 a2 bd f3 11 3f 3e 6e 87 ce 3e
       -0.3877894 -0.079544075 0.18659191 0.403377
000240 22 ac c4 3e b3 77 93 3e 75 b6 14 3e 50 6e 8f 3d
       0.38412577 0.2880226 0.14522727 0.07003462
000250 93 8a 80 3d 1b e4 65 3e 9a 99 c8 3e be cf 94 3d
       0.06276431 0.22450297 0.3917969 0.07266186
000260 51 fe 5b be a6 31 5b be a5 69 90 3e 27 80 9e 3e
       -0.21483733 -0.21405658 0.282056 0.30957147
000270 e4 35 0d be 65 85 10 3e 4f a3 d4 3d fa b0 9b 3e
       -0.13790089 0.14113386 0.10382711 0.3040846
000280 42 51 f2 3c 4f 12 a1 be b5 51 0e 3d bf 71 54 be
       0.029579762 -0.3145928 0.03474589 -0.20746516
000290 9b c8 8f 3d 98 4b 66 3e cc f7 ca 3d ba bd d8 bc
       0.07020684 0.22489774 0.09910545 -0.026457656
0002a0 4e 1c 7b 3e 93 a8 7a 3e 37 09 c9 3e 2b e5 31 3d
       0.24522516 0.24478368 0.39264843 0.043431442
0002b0 a4 65 25 3f 47 7e c1 3d 20 0e 17 3e ae ab 91 3e
       0.64608216 0.094479136 0.14751482 0.28451294
0002c0 6d d2 2e 3f 36 ee 9f 3e 65 30 36 3e 92 c7 62 be
       0.68289834 0.31236428 0.17791899 -0.22146443
0002d0 e3 9c 85 3e 17 de 8c 3e bd b2 49 3e 57 8f 10 bf
       0.26096258 0.2751319 0.1969709 -0.5646872
0002e0 2d 20 90 3e c8 8a 45 3e 39 ce cc 3c 42 fa 39 3e
       0.28149548 0.19291222 0.025000678 0.18161872
0002f0 a7 18 2b 3e 53 bf 13 3e 1c 9e 81 3e b7 a8 b6 3e
       0.16708623 0.14428453 0.2531594 0.35675594
000300 25 66 60 3e 2c b7 5b 3e 5a b5 95 3e e9 99 a6 bd
       0.21913965 0.21456593 0.29239923 -0.08134825
000310 cc db ce 3e 2d 5c 9a 3e 6d 5a 67 3e d8 b5 99 3e
       0.40402067 0.3014845 0.22593088 0.30021548
000320 1e 93 7c bd ee 49 85 3e cf 7b 11 3e 8e 23 08 3f
       -0.06166374 0.26032966 0.14207385 0.5317925
000330 88 61 85 be 3d e2 6b 3e a2 50 93 3d aa 21 96 3e
       -0.26050973 0.23035522 0.07193114 0.2932256
000340 96 fe 85 3e 51 51 1a 3f e1 f7 fa bd 8c 30 05 be
       0.26170796 0.6028033 -0.122543104 -0.130068
000350 ae 55 b3 3e 2d d7 96 3e f2 d4 90 3e 11 af 94 3e
       0.35026306 0.2946104 0.28287464 0.29039815
000360 78 f0 95 3d 0a 77 ce 3e ef 05 86 3e 08 ac 76 3e
       0.073212564 0.40325195 0.26176402 0.24089062
000370 66 ea 47 3e a6 82 b4 bd 66 7f 7a 3d f7 45 b5 be
       0.1952301 -0.08813982 0.061156653 -0.3540494
000380 11 75 67 3e 20 de a9 be 86 41 47 3e 06 d5 1e 3e
       0.22603251 -0.3317728 0.19458589 0.1551095
000390 2f cc 00 bf 98 c2 b5 3e 06 90 fe 3d 55 35 95 bd
       -0.5031156 0.35500026 0.12429814 -0.07285563
0003a0 c8 66 d2 3e 06 e0 9f 3e 2e 05 95 3d 19 37 b5 3b
       0.4109404 0.31225604 0.072763786 0.00553025
0003b0 19 17 40 3f 8b 81 88 3d b5 e7 b9 be 3f 41 62 3e
       0.75035244 0.06665333 -0.3630959 0.22095202
0003c0 95 a8 43 be ab d9 34 bc 24 dc 14 3e bf b0 21 bd
       -0.19107278 -0.011038224 0.14537102 -0.0394752
0003d0 d3 24 81 3e 8a 0d 6d 3e 92 16 6e 3e b7 cf f1 be
       0.25223407 0.23149696 0.23250797 -0.47228786
0003e0 f2 44 d3 3e ec c9 d5 bd ee 6a e7 3d 5b 70 47 bd
       0.4126354 -0.10438904 0.11299692 -0.048691135
0003f0 eb 32 ea 3e fd f0 7a 3e eb 86 90 3e d5 cf 48 3e
       0.45741972 0.24505992 0.28227934 0.19610532

fc2.bias f4 [64]
000000 25 cb ed 3d ad 1d 0f be df 7e 0f bb 8f 46 ed 3d
       0.11611012 -0.13976164 -0.002189569 0.115857236
000010 e0 c9 a7 3d 93 d1 c7 3c d8 5a 05 bd 76 7a 2c 3d
       0.081928015 0.024391925 -0.03255734 0.042108975
000020 18 00 ee 3c f0 c7 ae bd ac e3 44 bd 45 55 05 be
       0.02905278 -0.08534229 -0.048068687 -0.13020809
000030 55 c4 fd bd 4e a2 2f 3d c6 15 c3 3c 23 87 ba 3e
       -0.12390963 0.042879395 0.023814093 0.36431226
000040 fd 7b 26 3d fd 1b 29 3d d5 a9 b5 3c 36 71 d9 3d
       0.04064559 0.041286457 0.022175709 0.106172964
000050 6e 22 1b 3c 25 69 60 3e 56 74 c8 bc 87 14 cd 3d
       0.009468658 0.2191511 -0.024469536 0.10013681
000060 d0 a2 e0 3c 47 66 f9 bd 96 22 8a bd 9d 60 c9 3c
       0.027421385 -0.12177711 -0.06744878 0.024582202
000070 08 46 50 3e cc 84 81 bd c9 b7 8f 3d 24 73 a3 3d
       0.20339215 -0.06324157 0.07017476 0.07980946
000080 03 8b 61 bd fb c9 30 3e 71 a1 01 3c df 5a f9 bd
       -0.055064213 0.1726455 0.007912026 -0.121755354
000090 8b 3b 40 bd 7a e7 8d 3d c0 2a ea bc 44 99 b7 3d
       -0.046931785 0.06928916 -0.028584838 0.0896478
0000a0 e0 99 95 3d 1c 61 ea 3c 5d bd a3 3c f6 bf c0 3d
       0.0730474 0.028610758 0.019987756 0.09411614
0000b0 66 e6 9a 3e e8 7b c8 3d 4e e4 c9 bd 28 f8 ba 3c
       0.30253905 0.09789258 -0.09857999 0.022823408
0000c0 30 1d 9a 3d 1d 7f 33 3b dc 12 26 3e 05 74 b1 bb
       0.07525098 0.0027388998 0.16218132 -0.005415442
0000d0 10 d6 eb 3d 31 24 df 3d 36 be 04 3d f5 06 5f 3d
       0.115154386 0.10895575 0.03240796 0.054449994
0000e0 73 0b 5b 3e 07 cd f0 3c 44 81 c7 bd 3e c9 57 bb
       0.21391086 0.02939464 -0.09741452 -0.0032926346
0000f0 6a 1e b6 bd 5f e8 c3 bc 78 84 cc bc da b2 0a 3e
       -0.0889252 -0.023914514 -0.02496551 0.13544789

fc3.weight f4 [4, 64]
000000 af a8 4f be c0 dd dc 3c f8 19 89 be 17 04 91 be
       -0.20279191 0.026961207 -0.26777625 -0.28323433
000010 32 08 3a be 55 33 9c be b7 0f 82 3d 79 2b cc bd
       -0.18167189 -0.30507913 0.063506536 -0.09969229
000020 b8 03 c7 bd 4c 0a 1d 3d 8c 97 8b be 16 36 93 bd
       -0.09717506 0.038339898 -0.2726406 -0.071880504
000030 9f a6 a0 bd 0e 67 91 be 28 aa fa 3f 1c 36 14 3f
       -0.078442805 -0.28398937 1.9583178 0.57895064
000040 f1 d7 01 be 5c 49 c8 be 66 0e 79 be 27 34 80 be
       -0.12680031 -0.3911847 -0.24321899 -0.2503979
000050 f0 cd 7b be 25 24 73 3f 88 fd e0 3e ef e9 35 3f
       -0.24590278 0.9497703 0.4394343 0.7106008
000060 a4 44 92 be e2 97 ff 3d 4c b2 e1 bd 2b 6b b5 be
       -0.28567994 0.12480141 -0.110203356 -0.35433325
000070 2f 2d 82 bf 3f 32 c0 be fd f5 79 3e 26 e2 97 bc
       -1.0170039 -0.37538335 0.24410243 -0.018540453
000080 b2 67 92 be 63 5d b0 be 03 8a 5d be 68 40 dc bd
       -0.28594738 -0.34446248 -0.21634679 -0.10754472
000090 07 54 27 be c8 9c 30 be 8a 2e 1e bd 40 d4 1b bd
       -0.16340648 -0.17247307 -0.0386186 -0.038044214
0000a0 c2 b8 6b be 6e f5 56 be 6c e4 b0 bd ed d0 a3 3d
       -0.23019698 -0.20992061 -0.08637318 0.07998834
0000b0 2c fb 71 3f cc f3 05 bd da a0 98 3d 67 6e ac be
       0.9452388 -0.032703206 0.07452555 -0.3367798
0000c0 43 c4 bb be 4b d0 6e be 24 b0 d9 be 5d d2 42 be
       -0.36673173 -0.23321645 -0.42517197 -0.1902556
0000d0 82 52 f4 bd 86 ed bf be 57 ba 57 be aa e0 8e 3e
       -0.119297996 -0.37485904 -0.21067177 0.2790578
0000e0 b0 43 86 3d e2 cb 3a bc 23 ff b4 3c 5d 59 89 be
       0.06555879 -0.0114011485 0.022094315 -0.2682599
0000f0 b3 d9 d7 be c5 c5 46 be ae 73 9c 3d c3 8d a0 be
       -0.4215828 -0.1941138 0.07639252 -0.31358156
000100 c9 d1 54 3c ff 77 6b 3c 09 d2 8c bd c5 2b 89 be
       0.01298947 0.014371871 -0.068759985 -0.26791206
000110 a5 6a 89 be ce 79 8b be b6 a8 e4 bb b7 24 82 be
       -0.26839176 -0.27241367 -0.0069781197 -0.25418636
000120 2a fc e3 3d 3e d9 a3 bd 4e f5 b0 be fc 9b 35 bd
       0.11132081 -0.0800042 -0.34562153 -0.04433821
000130 02 1b ff 3c 76 03 b6 be 1e f6 02 40 d7 9b dd 3e
       0.031140808 -0.35549515 2.0462718 0.4328296
000140 7e b7 76 be 30 1a 5f be 64 1b 6b be ea 76 81 be
       -0.24093434 -0.21787333 -0.22959667 -0.25286037
000150 74 cc 47 be d3 0e b2 3f 6a 9c af 3e 34 b3 ef 3e
       -0.19511586 1.3910774 0.34299022 0.4681641
000160 13 0e aa be 04 77 4f 3d f6 9d 25 be f5 a5 26 be
       -0.33213863 0.05065061 -0.16173539 -0.16274245
000170 1d 81 7b bf fb 4b bc be d6 58 22 be 73 da 20 bd
       -0.98243886 -0.36776718 -0.158542 -0.03927083
000180 63 9b 80 be 2f 09 05 bf e1 88 99 be cc 87 ff 3d
       -0.2511855 -0.5196714 -0.29987243 0.12477073
000190 b0 bc b0 be 8e fb 8b be 27 8f 26 3e 27 56 95 3e
       -0.34518957 -0.27340358 0.16265546 0.29167292
0001a0 d5 63 9b be 81 bd e1 be 61 d6 6c be 35 ad 2d 3f
       -0.30349603 -0.44089893 -0.23128654 0.6784242
0001b0 40 0e 59 3f 60 1a 2f 3c 2d dc bc 3d fe ce 90 be
       0.8478737 0.010687441 0.09221683 -0.28282923
0001c0 11 fb 95 be 41 24 22 be df d5 2b bf c1 92 d1 3d
       -0.2929311 -0.15834142 -0.67123216 0.10233069
0001d0 62 1f 99 be 17 8e 59 be d0 20 94 be a0 ec c0 38
       -0.29906756 -0.21245609 -0.28931284 9.199348e-05
0001e0 69 fe a8 3d 7a 5e 6b 3d fe 8f 6d bc e5 2c b5 be
       0.0825165 0.057463147 -0.014499662 -0.35385814
0001f0 3a 1f 9d be c0 a5 2a be d8 97 f9 3d 37 de 88 be
       -0.30687886 -0.16664791 0.12187165 -0.26732036
000200 75 88 e5 be ab f5 bd bd 27 9f e4 be 77 4c a7 3c
       -0.4483067 -0.09275373 -0.44652674 0.020422203
000210 51 37 29 3e 2c d3 09 bd e0 67 80 3c 85 91 37 be
       0.16525008 -0.033648655 0.015674531 -0.17926605
000220 4c 08 af 3d aa dd 98 3d 05 53 4e 3d 6e 41 96 3c
       0.085465044 0.07464154 0.050372142 0.018341746
000230 51 96 8e 3d b7 fb bf be 70 0a 97 3e 7d bf 03 3f
       0.06962264 -0.3749673 0.2950015 0.5146406
000240 6c db 56 be b7 45 00 bf e1 f7 ff be fe 11 b9 be
       -0.2098214 -0.50106376 -0.49993804 -0.3614654
000250 1e ca 1a 3e 7d 2c 62 3f 83 67 c4 3d 7e 3a ef bd
       0.15116164 0.88349134 0.09590056 -0.116810784
000260 09 81 82 be f7 00 ff 3d 9c d6 09 bf 11 38 d8 be
       -0.2548907 0.12451356 -0.5384309 -0.42230275
000270 91 40 61 bf 87 58 99 bd be e2 20 be bf 98 72 bd
       -0.87989146 -0.074875884 -0.15711495 -0.0592277
000280 df 58 5a 3d db 90 0c be fc 4c 3a be 90 32 4f bd
       0.05330741 -0.13727133 -0.1819343 -0.05058533
000290 19 8f ae 3d 3e cc 87 be 6a e8 92 be a3 bb b2 be
       0.085233875 -0.26523012 -0.28692943 -0.3490878
0002a0 ea de b0 be ef 8d e5 be a7 14 f4 be 49 f6 be 3d
       -0.3454507 -0.4483485 -0.47672006 0.09324319
0002b0 94 96 85 3f c0 fa 4d bb d6 6e 98 bd ec ac e6 be
       1.0436578 -0.0031429976 -0.07443015 -0.45053804
0002c0 c7 54 47 be ef ee d5 be 37 b8 6b bf bd 7e 05 bf
       -0.19465934 -0.41783854 -0.92077965 -0.5214651
0002d0 b7 03 da be 1b 43 02 bf 17 4a a0 bd a2 df b0 3e
       -0.4258096 -0.50883645 -0.078266315 0.34545618
0002e0 35 c4 27 3f 0f fa f3 bd a3 24 7d 3d 95 ea a3 3c
       0.65533763 -0.11912929 0.061802518 0.020009318
0002f0 c5 6d 93 be 67 93 be be 39 67 51 3d f4 d2 78 be
       -0.28794685 -0.37221834 0.05112383 -0.24299222
000300 a0 f2 fb bd a2 ef b5 3d e8 7f 0f be 69 34 b9 be
       -0.123021364 0.08883597 -0.14013636 -0.36172798
000310 55 b0 60 be 98 87 82 be b2 69 92 3d 91 e6 a9 be
       -0.21942265 -0.25494075 0.07149066 -0.3318372
000320 50 47 93 3c f0 bc 33 bd 34 7e 6e be 80 12 23 bb
       0.01797834 -0.043881357 -0.2329033 -0.0024882853
000330 07 34 89 be 0f bd ac be e5 a6 fc 3f 33 2a 1d 3f
       -0.26797506 -0.3373799 1.9738432 0.61392516
000340 a1 c6 9b be ef aa 6a bd 43 86 51 be b2 57 a0 be
       -0.3042498 -0.05729192 -0.20461373 -0.31316906
000350 c9 62 6f be c8 a4 6d 3f 88 68 6e bd 5c b8 a9 3f
       -0.23377527 0.9282956 -0.058205158 1.3259387
000360 7d da 88 be 56 9c 9d 3d 77 eb 68 be 7e 1b 80 be
       -0.26729193 0.07695834 -0.22746073 -0.25020975
000370 ab 56 47 bf ce ca 9c be 2b a1 32 3d 5a bb c2 be
       -0.7786662 -0.30623478 0.043610733 -0.38033563
000380 9b fa 7c be 5f 25 62 be d6 b7 aa be 4a c4 75 bd
       -0.24704973 -0.22084568 -0.3334338 -0.06000165
000390 73 68 d1 bd ee 44 9e be 64 05 71 be 14 ca 14 be
       -0.10225 -0.30911964 -0.23537213 -0.14530212
0003a0 6a 95 87 be ef 45 82 be e3 69 76 be fc fe 46 be
       -0.2648118 -0.2544398 -0.2406383 -0.19433206
0003b0 59 01 48 3f 90 64 f3 bd 18 68 2d 3d 84 8a 9a be
       0.78127056 -0.11884415 0.0423356 -0.30183804
0003c0 99 4f 8d be 1f 76 21 bc e1 7a 85 bf e7 7c 4f be
       -0.2759979 -0.009854822 -1.0428125 -0.2026249
0003d0 20 11 4b bd fb 47 d6 3c 22 07 be be 8f 41 41 bd
       -0.04957688 0.02615737 -0.37114817 -0.047181662
0003e0 7b 5d af 3e 66 56 03 be ee 8b dc 3c 39 78 9d be
       0.34251007 -0.12825927 0.026922192 -0.30755785
0003f0 97 fd 56 be 14 52 ac be e0 e7 7b 3d 82 d5 80 be
       -0.20995174 -0.3365637 0.06150043 -0.25162894

fc3.bias f4 [4]
000000 28 73 58 3d 73 88 af 3d a7 02 1e 3e 07 6b c0 bd
       0.052844197 0.085709475 0.154307 -0.09395414
