checkpoint.pth (torch, 21847 bytes, 6 tensors)

fc1.weight f4 [64, 8]
0	0xbc98b832	-0.018642519
1	0xbf46f86e	-0.77722824
2	0xbdec0ef8	-0.115262926
3	0xbf2c1553	-0.6722004
4	0xbdfd258a	-0.12360676
5	0x3df53a26	0.119739816
6	0x3cd9a74e	0.026569035
7	0x3eafc7ca	0.34332114
8	0xbf0d825f	-0.55277056
9	0xbf1fa406	-0.62359655
10	0xbe06aa78	-0.13150966
11	0xbe97cd68	-0.296489
12	0xbf2d935d	-0.67802984
13	0xbf2cef49	-0.6755262
14	0xbe666292	-0.22498539
15	0x3e36b4e8	0.17842448
16	0x3e6d5def	0.23180364
17	0xbe478c20	-0.19487047
18	0xbd32d6d1	-0.043661896
19	0xbe4f909b	-0.20270006
20	0x3e02d7f9	0.127777
21	0x3f357afc	0.70890784
22	0x3d4504a2	0.04810012
23	0x3e9a32e8	0.30116963
24	0x3df08f4a	0.1174608
25	0xbe7e85e1	-0.24855758
26	0x3e7bd7c3	0.24594025
27	0xbe8d8b2f	-0.2764525
28	0xbf3c5cc2	-0.7357904
29	0xbf1ebc55	-0.6200612
30	0xbe8307e5	-0.2559196
31	0x3eb328d6	0.34992093
32	0xbd89714e	-0.06711064
33	0xbf78ba58	-0.9715934
34	0xbe197d83	-0.14989285
35	0xbf519c76	-0.81879365
36	0xbdad724c	-0.08469066
37	0x3e56324e	0.20917627
38	0x3e96f976	0.294872
39	0x3e2600ea	0.16211286
40	0x3df5280f	0.11970531
41	0xbf9c485e	-1.2209585
42	0x3df3cf98	0.1190483
43	0xbf4609a6	-0.7735847
44	0xbebb72ef	-0.36611125
45	0xbe99729e	-0.29970258
46	0x3e587074	0.21136647
47	0x3e933abf	0.28755757
48	0xbf048830	-0.51770306
49	0xbe0805dc	-0.13283485
50	0x3e1b94af	0.15193437
51	0xbd14492b	-0.03620259
52	0x3ebb2a32	0.3655563
53	0x3f3c4dd3	0.7355625
54	0x3e9ad375	0.30239454
55	0xbee105e1	-0.43949798
56	0xba6d6372	-0.0009055651
57	0xbf92778d	-1.1442734
58	0xbcfde40d	-0.030992532
59	0xbf4293cf	-0.7600679
60	0x3df3d751	0.11906303
61	0x3e4f3b15	0.20237382
62	0xbd423aa0	-0.04741919
63	0x3e074373	0.13209324
64	0x3eee66b7	0.4656274
65	0x3a5bfde9	0.00083920226
66	0x3e42be54	0.19017917
67	0xbe224318	-0.15845907
68	0x3ee65e2f	0.4499373
69	0x3f6a3b8f	0.9149713
70	0xbe7f2ac1	-0.24918653
71	0xbe163ca0	-0.14671564
72	0xbd9fa934	-0.07795945
73	0x3f6c7ccf	0.9237794
74	0x3eebe406	0.46072406
75	0x3f803848	1.0017176
76	0xbf6faf96	-0.936273
77	0xbeac9ac7	-0.33711836
78	0xbec01ac7	-0.3752043
79	0xbed8d059	-0.42346457
80	0xbe886fb1	-0.26647714
81	0x3ed77156	0.42078656
82	0x3eedc7ef	0.464416
83	0xbf19d6fc	-0.60093665
84	0x3f1b289c	0.6060884
85	0x3f314e99	0.69260556
86	0x3ef5664b	0.47929606
87	0x3e2935d8	0.16524446
88	0xbe6f9fe5	-0.23400839
89	0x3ca4e02f	0.02012643
90	0x3df79c9d	0.120904185
91	0xbda83971	-0.08214081
92	0x3ec96382	0.3933373
93	0x3f69a659	0.9126945
94	0x3db5b18c	0.08871755
95	0xbeb7d70c	-0.35906255
96	0x3f02bf54	0.51073194
97	0x3d8ffd67	0.070307545
98	0x3e129068	0.14312899
99	0xbe30ec4c	-0.1727764
100	0x3e958b74	0.29207957
101	0x3f6bcf59	0.9211326
102	0x3e83451b	0.2563866
103	0xbe8c0ce3	-0.27353582
104	0xbf2d1cd9	-0.67622143
105	0xbf89dc43	-1.0770344
106	0xbe5a7321	-0.2133298
107	0xbf0a2e43	-0.5397684
108	0xbdbc8faa	-0.09207089
109	0xbc9fe633	-0.019518947
110	0x3e35aa7e	0.17740819
111	0x3ec076d5	0.37590662
112	0xbe7dd0d5	-0.24786694
113	0x3ea1eaa6	0.31624335
114	0x3eeda524	0.46415055
115	0xbf2553dd	-0.6458109
116	0x3e2fb9d5	0.17160733
117	0x3ca6c75e	0.020358738
118	0x3f45d474	0.772773
119	0x3eb1f453	0.34756717
120	0xbbea0355	-0.0071415105
121	0x3e082541	0.13295461
122	0xbe466a04	-0.19376379
123	0x3e59ccb6	0.21269497
124	0xbec0bbcc	-0.37643278
125	0xbf92eac3	-1.1477894
126	0xbf17b0b4	-0.59254
127	0x3e99561d	0.29948512
128	0xbddec7d2	-0.108779564
129	0xbfa7232c	-1.3057609
130	0xbd66401f	-0.056213494
131	0xbf14e6e8	-0.58164835
132	0xbe42d8d0	-0.1902802
133	0xbd938b10	-0.072042584
134	0x3eb6b54c	0.35685194
135	0x3dd80ccf	0.10549318
136	0xbeecc827	-0.46246454
137	0x3d45f370	0.048327863
138	0x3e431e86	0.19054613
139	0xbe0ca02d	-0.13732977
140	0x3ed2ca3a	0.41169912
141	0x3f698491	0.91217905
142	0x3f068869	0.52551895
143	0xbe845fd0	-0.2585435
144	0xbe91fc84	-0.28512967
145	0xbf8f7712	-1.1208212
146	0x3dd88e69	0.105740376
147	0xbe632cdb	-0.2218508
148	0xbee5ff90	-0.4492154
149	0xbf3c29d7	-0.7350134
150	0xbeeb65e8	-0.45976186
151	0xbe6df0cc	-0.23236388
152	0xbc5d0a55	-0.013491233
153	0x3e606f12	0.2191737
154	0x3d99ae95	0.07504002
155	0xbf828369	-1.0196353
156	0x3efc04de	0.49222463
157	0xbf95a3cd	-1.1690613
158	0x3ee037eb	0.43792662
159	0x3e6183c0	0.22022915
160	0xbf5278a4	-0.82215333
161	0xbf86788e	-1.050554
162	0xbe8a76cb	-0.27043757
163	0xbee6799b	-0.45014653
164	0xbea55cb6	-0.32297295
165	0xbd2a8e20	-0.041639447
166	0x3dd920f9	0.10601992
167	0x3e3f45c9	0.18678965
168	0xbee95ed7	-0.4558017
169	0xbf665304	-0.8997042
170	0x3d469de4	0.04849042
171	0xbf19dda3	-0.60103816
172	0x3ee8987e	0.45428842
173	0x3c1ed931	0.009695337
174	0x3da78ac4	0.08180764
175	0x3e94ce0a	0.29063445
176	0x3f0d81b1	0.5527602
177	0xbf76a761	-0.9634915
178	0x3ed50af5	0.41609922
179	0xbf6c8d2a	-0.924029
180	0xbddf1f5c	-0.10894653
181	0xbd4c7631	-0.049917404
182	0x3e8f322a	0.2796796
183	0x3e842ce2	0.25815493
184	0x3f838a8e	1.0276659
185	0xbf55a814	-0.8345959
186	0x3e960489	0.29300335
187	0xbf01e227	-0.50735706
188	0xbe7ec906	-0.24881372
189	0x3e80d4a7	0.2516224
190	0x3ea094e9	0.3136361
191	0x3e5593f8	0.20857227
192	0xbefed626	-0.49772757
193	0xbf77123a	-0.96512187
194	0xbe71f322	-0.23627904
195	0xbf0207a9	-0.5079294
196	0xbe81fae0	-0.25386715
197	0x3c1b08cf	0.009462549
198	0x3dca00ae	0.09863411
199	0x3dec4fa4	0.11538628
200	0x3d9b2afb	0.07576557
201	0xbf523e15	-0.8212598
202	0xbe633823	-0.22189383
203	0xbf3e3708	-0.7430272
204	0xbe508cc3	-0.20366196
205	0x3e01f058	0.1268934
206	0x3d1ee826	0.038795613
207	0x3eaeb171	0.34119752
208	0x3e77832f	0.24171136
209	0xbf8a5f7a	-1.0810387
210	0x3e6d8cd3	0.23198251
211	0xbf3165ca	-0.6929594
212	0xbea5d622	-0.32389933
213	0xbe5a8f64	-0.21343762
214	0x3d9a1f5e	0.07525514
215	0x3d513f3d	0.0510857
216	0x3dbe131f	0.09280991
217	0xbfa193ba	-1.2623208
218	0x3e94fdb5	0.29099813
219	0xbf4d0d3f	-0.80098337
220	0x3df0a318	0.11749858
221	0x3ea65612	0.3248754
222	0x3e51087d	0.20413394
223	0xbe157ade	-0.14597651
224	0xbf30d815	-0.69079715
225	0x3f4ef9b2	0.80849755
226	0xbfb96158	-1.4482832
227	0xbf08895a	-0.5333458
228	0xbe89b4b8	-0.2689569
229	0xbe2b20ea	-0.16711774
230	0xbecc6ea0	-0.3992815
231	0x3ebbce41	0.36680797
232	0x3e1f8cbb	0.15581028
233	0x3f284248	0.6572614
234	0x3e874d2f	0.26426074
235	0xbf2e3196	-0.6804441
236	0x3f516600	0.81796265
237	0xbea84d4e	-0.3287148
238	0xbec9ac66	-0.39389342
239	0x3e89c747	0.2690985
240	0xbf07a70f	-0.52989286
241	0x3dc754ff	0.097330086
242	0xbec0ec88	-0.3768046
243	0xbe2a8d22	-0.166554
244	0x3cdc1b62	0.026868526
245	0xbf90d3e6	-1.1314666
246	0x3e81250c	0.25223577
247	0xbe667d52	-0.22508743
248	0xbed9d274	-0.42543375
249	0x3e3700eb	0.17871444
250	0xbe83ab82	-0.25716788
251	0x3eadb1a9	0.33924606
252	0x3dd748d8	0.10511941
253	0x3f2cc20b	0.67483586
254	0x3e0a71d2	0.13519982
255	0xbeb9458a	-0.36185867

fc1.bias f4 [64]
0	0x3d76360d	0.06011014
1	0x3dc6c2c4	0.09705117
2	0x3d0bfccf	0.034176644
3	0xbd15880a	-0.03650669
4	0x3d8ed153	0.06973519
5	0x3e1d6587	0.15370761
6	0x3e3e409b	0.18579333
7	0x3e7a0fb0	0.24420047
8	0x3dda0117	0.10644739
9	0x3d32f9dd	0.04369532
10	0x3f2cb777	0.67467445
11	0x3d49ecbd	0.049298037
12	0xbdd30a4c	-0.10304698
13	0xbc99b32f	-0.0187622
14	0x3f3dea54	0.7418568
15	0x3de0befe	0.10973929
16	0x3eb46479	0.35232905
17	0xbe0d766b	-0.13814704
18	0x3e8b0b75	0.2715718
19	0x3f199174	0.5998757
20	0xbe0604d9	-0.13087787
21	0x3d5e84f6	0.05432602
22	0xbd2ae4e5	-0.041722197
23	0xbd81c0eb	-0.06335624
24	0x3c205ffe	0.009788511
25	0xbd7ad57d	-0.061238755
26	0x3e305a70	0.17221999
27	0x3e1d9ca3	0.15391783
28	0xbca0b6ca	-0.01961841
29	0x3ed290b0	0.41126013
30	0xbbb67291	-0.0055678566
31	0x3e1a9427	0.15095578
32	0xbd4a4af2	-0.04938788
33	0x3e95ae67	0.2923462
34	0xbdcda4ca	-0.10041197
35	0x3e06de39	0.13170709
36	0x3de63453	0.11240449
37	0x3eac6901	0.33673862
38	0xbeabbe97	-0.33543846
39	0x3dd3fe27	0.1035121
40	0x3df86606	0.121288344
41	0x3d0111ae	0.031511
42	0x3e3ea0af	0.18615983
43	0x3e92c9b0	0.286695
44	0xbe2497bb	-0.16073506
45	0x3db16016	0.08660905
46	0x3f5443bc	0.82915854
47	0x3e2383ab	0.15968196
48	0xbe1db4ca	-0.15400997
49	0xbd238636	-0.039922915
50	0x3d84e770	0.06489456
51	0x3f221747	0.6331677
52	0x3d8eae55	0.06966845
53	0x3e2e5376	0.17024025
54	0x3e5a258b	0.21303384
55	0x3dccb107	0.09994703
56	0x3e8866df	0.26640984
57	0x3f320d8b	0.69551915
58	0xbba05b5b	-0.004893703
59	0x3eb23894	0.3480879
60	0x3db83291	0.0899402
61	0x3e7992c2	0.2437239
62	0x3d469cda	0.04848943
63	0x3e9b31c0	0.30311394

fc2.weight f4 [64, 64]
0	0x3d017afc	0.031611428
1	0x3e646f91	0.22308184
2	0x3e9ed0b1	0.31018594
3	0x3ec86774	0.39141428
4	0x3e2ac1da	0.16675511
5	0x3e47ef4c	0.19524878
6	0x3ec540db	0.38526043
7	0x3eabd27d	0.33559027
8	0x3e3b52f0	0.18293357
9	0x3ebf40bc	0.37354076
10	0xbd5c1823	-0.053733956
11	0x3e8b5505	0.27213302
12	0x3ea460b8	0.3210504
13	0x3e999fc2	0.30004698
14	0x3da3fef0	0.0800761
15	0x3f1671d2	0.58767426
16	0x3e9c27da	0.30499154
17	0x3eee9522	0.46598154
18	0x3eb967ea	0.36212093
19	0x3d30bdbb	0.04314969
20	0x3dc58fbf	0.09646558
21	0x3ed157f4	0.40887415
22	0x3edb8870	0.4287753
23	0x3eec2702	0.4612351
24	0xbc7ca3bd	-0.015419898
25	0x3e050f0a	0.12994018
26	0x3e670e29	0.22563995
27	0x3ee22ee4	0.441764
28	0xbde58903	-0.112077735
29	0xbdd554c8	-0.10416561
30	0x3ed1029d	0.40822306
31	0x3dd95567	0.10611992
32	0xbcbbb894	-0.022915162
33	0x3e6f6ce7	0.23381387
34	0x3e931aed	0.2873148
35	0xbce9e161	-0.028549852
36	0x3ecdd498	0.4020126
37	0x3ecae210	0.39625597
38	0x3d359d30	0.04433936
39	0x3f14eb12	0.5817119
40	0x3e94192c	0.28925455
41	0x3e83016e	0.25587028
42	0x3ef63e37	0.4809434
43	0x3e7b1746	0.24520597
44	0x3e82811d	0.2548913
45	0x3ecab075	0.3958775
46	0xbd08f52c	-0.03343694
47	0xbd8efd9f	-0.06981968
48	0x3e88bdb5	0.26707235
49	0x3e203a94	0.15647346
50	0xbd9faec7	-0.07797008
51	0xbe119d7b	-0.1422023
52	0x3e5950bb	0.21222202
53	0x3e911df9	0.2834318
54	0x3eb3e0be	0.35132402
55	0x3dd6367e	0.10459612
56	0x3e86cc6d	0.2632784
57	0xbd54326c	-0.0518059
58	0x3ea210a5	0.31653324
59	0xbf5996a3	-0.8499548
60	0x3db9c7b4	0.090712935
61	0x3e35f98a	0.17770973
62	0x3bdc42a1	0.00672181
63	0x3f03f7a8	0.5154977
64	0xbde0cd2f	-0.10976636
65	0xbafee30d	-0.0019446329
66	0x3ba678a1	0.005080298
67	0xbcb658e1	-0.022259178
68	0xbdec2614	-0.115307
69	0x3dc474b6	0.09592573
70	0xbdb68f8b	-0.089140974
71	0x3d8ce9d8	0.0688054
72	0xbe0d4e06	-0.13799295
73	0xbcca9bfb	-0.02473258
74	0x3cae1865	0.021251867
75	0xbd8ba839	-0.06819195
76	0x3dac70c2	0.08419944
77	0xbdeadd52	-0.11467995
78	0xbe17373a	-0.14767161
79	0xbd8144d9	-0.0631196
80	0xba981e58	-0.0011605723
81	0x3dc8c66e	0.098034725
82	0xbda69509	-0.08133895
83	0x3c4c288f	0.012460842
84	0xbd3e2b89	-0.046428237
85	0xbd75f68a	-0.06004957
86	0x3d92ad74	0.0716199
87	0xbe0ad539	-0.135579
88	0xbcb363d1	-0.021898182
89	0x3d9e2b6c	0.07723126
90	0xbcf4e880	-0.02989602
91	0x3d4973db	0.049182754
92	0xbd0af2a5	-0.03392281
93	0x3d94bed4	0.0726296
94	0xbe169952	-0.14706925
95	0xbccfe128	-0.025375918
96	0xbd53f3ea	-0.051746286
97	0x3ba09549	0.0049006087
98	0x3d3503a7	0.044192936
99	0x3da3fb40	0.080069065
100	0xbd00bc74	-0.031429723
101	0xbd282f38	-0.041060656
102	0x3daf4fca	0.085601404
103	0xbd4775c1	-0.048696283
104	0x3d9841b5	0.074344076
105	0xbdf61fd2	-0.12017788
106	0xbd141e1e	-0.036161534
107	0xbd0d7bd1	-0.03454191
108	0x3cb36447	0.021898402
109	0x3d8d4363	0.068976186
110	0xbd122b72	-0.035685964
111	0xbdedcc16	-0.11611192
112	0x3d7db128	0.061936527
113	0x3ccff350	0.025384575
114	0x3d4dab88	0.050212413
115	0xbdcfcbbf	-0.10146283
116	0x3d92ea2f	0.07173573
117	0x3dab1d40	0.08355188
118	0xbc90728f	-0.01763275
119	0xbe15357c	-0.14571184
120	0x3d877add	0.06615231
121	0xbe03489d	-0.12820669
122	0xbac8e8cb	-0.0015328167
123	0xbcc31691	-0.023814471
124	0xbd984b3d	-0.074362256
125	0x3cf4052f	0.029787628
126	0xbe14d678	-0.14534938
127	0xbb00d643	-0.001965896
128	0x3d0998f9	0.03359315
129	0x3ec48238	0.383806
130	0x3e7619d8	0.24033296
131	0x3ebc7c71	0.3681369
132	0x3e46170b	0.19344728
133	0x3ed324a7	0.412389
134	0x3eef82b5	0.4677941
135	0x3e81d1a3	0.25355253
136	0x3e4f9c70	0.2027452
137	0x3e3fd257	0.18732582
138	0xbcbae196	-0.022812646
139	0x3e885e0a	0.26634246
140	0x3ea90ff2	0.33019978
141	0x3e8413f1	0.25796464
142	0x3de26cac	0.11055884
143	0x3f4f63b4	0.8101151
144	0x3f0ec026	0.55761945
145	0x3e9d82ce	0.3076386
146	0x3e9f5668	0.3112061
147	0xbda1ff8f	-0.07910072
148	0x3dfd4102	0.12365915
149	0x3e9cc8dc	0.30621994
150	0x3ef2c7f2	0.4741817
151	0x3e9cf200	0.3065338
152	0x3e6d1ec3	0.23156266
153	0x3e17a478	0.14808834
154	0x3ece7d47	0.40329954
155	0x3eeca811	0.46221974
156	0xbcc6f43e	-0.024286386
157	0xbcc2bc0f	-0.023771314
158	0x3ea8df28	0.32982755
159	0x3eb22d96	0.34800404
160	0x3d5f1772	0.05446572
161	0x3e4e1038	0.20123374
162	0x3e957ca5	0.2919666
163	0xbc602fea	-0.013683299
164	0x3e836bdc	0.25668228
165	0x3f066118	0.52491903
166	0x3dcaf7cc	0.09910545
167	0x3ebd7299	0.37001494
168	0x3e8c817f	0.27442548
169	0x3ea3c3ce	0.31985325
170	0x3ecf9b45	0.4054815
171	0x3e274f50	0.16338849
172	0x3ec97736	0.39348763
173	0x3e998406	0.29983538
174	0xbe4aa524	-0.19789559
175	0x3dd2a1ae	0.10284744
176	0x3eeedd0a	0.46653014
177	0x3ea9ad19	0.33139876
178	0xbe9bf4e0	-0.30460262
179	0xbc017cc6	-0.007903283
180	0x3eb083dc	0.344756
181	0x3eecafc7	0.46227857
182	0x3e914249	0.28370884
183	0xbb773bf2	-0.003772494
184	0x3e7bb838	0.24581993
185	0x3d53ab13	0.05167682
186	0x3e28077e	0.16409108
187	0xbf4d708c	-0.8024986
188	0x3e4a0d77	0.19731699
189	0x3e8a89d2	0.27058274
190	0x3d8bf305	0.06833462
191	0x3f29ff03	0.6640474
192	0x3d3b0c2b	0.0456659
193	0x3ed2ea6a	0.4119447
194	0x3e397c5e	0.18113849
195	0x3dfde308	0.123968184
196	0x3eb0b7eb	0.34515318
197	0x3e93c6f8	0.2886274
198	0x3ef102ef	0.4707255
199	0x3e10d7ab	0.14144771
200	0x3f16dde1	0.5893231
201	0x3d101a98	0.03518161
202	0xbdca761c	-0.09885809
203	0x3eb8f9d4	0.36128104
204	0x3ea4df26	0.322015
205	0x3ebc9c82	0.36838156
206	0xbcd0ebb4	-0.025503017
207	0x3ee6d6a3	0.4508563
208	0x3e8e41e6	0.27784652
209	0x3eef82a3	0.46779355
210	0x3e8aef73	0.2713581
211	0xbcacb883	-0.021084076
212	0x3ec2b351	0.38027433
213	0x3e391c96	0.18077311
214	0x3eae7911	0.3407674
215	0x3eddad87	0.43296453
216	0x3f04fc60	0.51947594
217	0x3e7f4485	0.24928482
218	0x3ec8ce52	0.3921991
219	0x3e8d2ca9	0.27573135
220	0x3f18d9e6	0.59707487
221	0xbd5906a4	-0.05298485
222	0x3ef7ebc7	0.4842207
223	0x3e39987f	0.18124579
224	0x3e96da1b	0.29463276
225	0x3e2b4d12	0.16728619
226	0x3e932789	0.287411
227	0x3d3e6d8a	0.046491183
228	0x3dee4ef3	0.11636152
229	0x3f071771	0.52770144
230	0x3dfe9006	0.12429814
231	0xbdbee6fa	-0.09321399
232	0x3e26c6e0	0.16286802
233	0x3deff54a	0.11716707
234	0x3cbb50d5	0.022865692
235	0x3e663564	0.22481304
236	0x3f0e28ed	0.555312
237	0x3ec883bc	0.39163005
238	0xbe7edd17	-0.24889027
239	0x3e99ed72	0.3006397
240	0x3f0e51af	0.5559339
241	0x3e4b14d4	0.19832164
242	0xbf9c30b7	-1.2202367
243	0x3e534856	0.20633063
244	0x3f12c837	0.57336754
245	0x3ec28c37	0.379976
246	0x3ec0c9a6	0.37653846
247	0x3e4ba461	0.19886924
248	0x3e4f979a	0.20272675
249	0x3eae6bff	0.3406677
250	0x3ec2fd5d	0.38083926
251	0xbf58cb13	-0.84684867
252	0x3e939c5d	0.28830233
253	0x3eabe6a6	0.33574408
254	0x3e4f7189	0.20258154
255	0x3ee8892c	0.45417154

fc2.bias f4 [64]
0	0x3ddfaab9	0.10921235
1	0xbe22b4ff	-0.15889357
2	0xbd637f1c	-0.055541143
3	0x3d439829	0.047752533
4	0xbdaba2cc	-0.083806604
5	0xbcb2eaf6	-0.021840554
6	0xbcfd27fb	-0.030902853
7	0xbc99c597	-0.018770976
8	0x3cee0018	0.02905278
9	0xbdcf4a82	-0.10121633
10	0xbd99d3f9	-0.07511134
11	0xbd82213b	-0.063539945
12	0xbe8d8949	-0.27643803
13	0xbc48f824	-0.012266193
14	0x3d5018b6	0.050804816
15	0x3f1d6c03	0.6149294
16	0xbb761114	-0.00375468
17	0x3ce5c8d1	0.028049858
18	0x3e4d7d9a	0.20067444
19	0x3daba5d8	0.083812416
20	0xbdcd6cce	-0.100305185
21	0xbd78a827	-0.060707238
22	0xbdb745ed	-0.08948884
23	0x3e48208f	0.1954367
24	0xbd70439b	-0.058658224
25	0x3f32309f	0.6960544
26	0x3d2e0875	0.042488534
27	0xbd34413a	-0.044007517
28	0x3e507220	0.20356035
29	0xbe1c23ed	-0.1524808
30	0x3e4418e7	0.19150124
31	0x3f3a75b1	0.7283583
32	0xbdfee723	-0.124464296
33	0x3ddf3b44	0.10899976
34	0xbdb25556	-0.08707683
35	0xbdd8d404	-0.10587314
36	0xbe60ace4	-0.21940953
37	0x3e205a96	0.15659556
38	0xbe0368fd	-0.12833019
39	0x3dcba3da	0.099433616
40	0x3d09d435	0.033649642
41	0x3e1e442f	0.15455697
42	0x3e03821f	0.12842606
43	0xbdb76450	-0.0895468
44	0xbddf073a	-0.1089005
45	0x3dc87be8	0.09789258
46	0xbdbcc0a8	-0.09216434
47	0x3dcdc4ba	0.10047288
48	0x3adadaca	0.0016697284
49	0x3c7a2d93	0.015269655
50	0x3c1e4f82	0.009662511
51	0xbd69e13b	-0.057099562
52	0x3e2a81f7	0.1665114
53	0x3e65c343	0.22437768
54	0xbcf8d12a	-0.030373175
55	0x3f3780a0	0.7168064
56	0xbdaee823	-0.0854037
57	0x3e0d8b14	0.13822585
58	0xbe11bc3b	-0.1423196
59	0xbd8bcbb4	-0.06825963
60	0xbdeddb64	-0.11614111
61	0xbd870a6b	-0.06593784
62	0xbd4d79be	-0.05016493
63	0x3d876f22	0.06612994

fc3.weight f4 [4, 64]
0	0xbeb19b8a	-0.3468898
1	0x3cd18fd7	0.025581283
2	0xbebebf54	-0.37255347
3	0xbeb764bb	-0.3581904
4	0xbea93153	-0.33045444
5	0xbed3be8a	-0.41356307
6	0x3d886b91	0.06661142
7	0x3d7fa2b6	0.062411033
8	0xbdc703b8	-0.09717506
9	0x3d1d0a4c	0.038339898
10	0xbecd2422	-0.4006663
11	0xbef2a1ac	-0.4738897
12	0xbeb1f470	-0.34756804
13	0xbebdefd2	-0.3709703
14	0xbee953d0	-0.45571756
15	0x3f6092ad	0.8772381
16	0x3d491b7d	0.04909848
17	0xbedde6fe	-0.43340296
18	0xbced7718	-0.028987452
19	0xbe9361da	-0.28785592
20	0xbebeaab8	-0.37239623
21	0xbe89d5e9	-0.26921013
22	0x3cbceb47	0.023061408
23	0x404683f4	3.1018038
24	0xbeb305b1	-0.3496528
25	0x3fcb6497	1.5890073
26	0xbdf06087	-0.11737161
27	0xbeed9e39	-0.46409777
28	0xbed95265	-0.42445675
29	0xbefd1bc3	-0.49435243
30	0x3e2483c5	0.16065891
31	0x3fcab06b	1.5835088
32	0xbeb8faf8	-0.36128974
33	0xbdbb6db3	-0.09151783
34	0xbe9eaf8a	-0.309933
35	0xbddc4068	-0.10754472
36	0xbf188321	-0.59575087
37	0xbe8e9140	-0.27845192
38	0xbefc1340	-0.49233437
39	0xbe99b5e2	-0.30021578
40	0xbe7d3a02	-0.2472916
41	0x3d8c0408	0.068367064
42	0xbd0bb5ef	-0.034109052
43	0x3f17c953	0.5929157
44	0x3d37656f	0.04477447
45	0xbd05f3cc	-0.032703206
46	0x3d98a0da	0.07452555
47	0xbecd921b	-0.40150532
48	0xbee700fa	-0.45117933
49	0xbe13f801	-0.14450075
50	0x3d09493a	0.0335171
51	0xbe9d61b3	-0.307386
52	0x3f2a86d3	0.66611975
53	0x3e00167c	0.12508577
54	0xbe950c9f	-0.29111192
55	0x3f9bc1ea	1.2168553
56	0xbefba592	-0.49149758
57	0xbeb253d2	-0.34829575
58	0xbe00c65a	-0.12575665
59	0xbea66294	-0.32497084
60	0xbedd6a01	-0.43244937
61	0xbeb083ad	-0.3447546
62	0x3d79d65d	0.06099545
63	0xbeb5172b	-0.35369238
64	0xbc8a7dfd	-0.016905779
65	0x3cbd8d08	0.023138538
66	0xbe19bc9f	-0.1501336
67	0xbec488b6	-0.38385552
68	0xbeee309f	-0.4652147
69	0xbeb65446	-0.3561117
70	0xbd5583eb	-0.05212776
71	0xbd7cfe1e	-0.061765783
72	0x3de3fc2a	0.11132081
73	0xbd836518	-0.064157665
74	0xbeccc65c	-0.39995086
75	0xbeb21a78	-0.3478582
76	0xbdd764b5	-0.10517255
77	0xbeb5d034	-0.3551041
78	0xbe3c0e00	-0.18364716
79	0x3ef96c7d	0.48715582
80	0xbcf6b1cf	-0.030114083
81	0xbe48f8ed	-0.19626208
82	0x3c2b723f	0.01046425
83	0xbeaf0f6c	-0.34191453
84	0xbeb475a0	-0.3524599
85	0xbe198a87	-0.1499425
86	0x3dc34f7d	0.095366456
87	0x40428571	3.0393946
88	0xbeb94a8b	-0.36189684
89	0x3fd0996d	1.6296822
90	0xbe8c4b29	-0.27401093
91	0xbe86ade3	-0.2630454
92	0xbee3ab3a	-0.44466573
93	0xbef04ec0	-0.4693508
94	0xbebd3db9	-0.36961153
95	0x40065a49	2.0992606
96	0xbeabc9f1	-0.33552507
97	0xbef3fdb5	-0.476545
98	0xbeb2ddc1	-0.3493481
99	0x3dff87cc	0.12477073
100	0xbf30047f	-0.6875686
101	0xbf041fab	-0.5161082
102	0xbe8586f2	-0.26079518
103	0x3d69d1e2	0.057084925
104	0xbeedc059	-0.46435812
105	0xbf023ef3	-0.508773
106	0xbe91d48b	-0.2848247
107	0x3f44bccd	0.7685059
108	0xbd8ab1a0	-0.067721605
109	0x3c2f1a60	0.010687441
110	0x3dd0facc	0.10204086
111	0xbeae0b04	-0.3399278
112	0xbeb8201d	-0.35962
113	0xbed4adb7	-0.41538784
114	0xbc03befc	-0.00804114
115	0xbdf9ed30	-0.12203443
116	0x3f96a1b1	1.1768094
117	0x3e51c90c	0.2048685
118	0xbedf1994	-0.43574202
119	0x3f986e67	1.1908692
120	0xbed68b53	-0.4190317
121	0xbe2116c0	-0.15731335
122	0x3eefc833	0.46832427
123	0xbef3e108	-0.47632623
124	0xbee7f349	-0.453028
125	0xbe8418da	-0.2580021
126	0x3dcd7a04	0.10033038
127	0xbe98a2bd	-0.2981166
128	0xbf14c7cd	-0.5811737
129	0xbdb48bd8	-0.088157356
130	0xbef60549	-0.48050907
131	0xbe116c4d	-0.1420147
132	0xbb8fef56	-0.0043925447
133	0xbe651ea2	-0.22374967
134	0x3c03dbcd	0.00804801
135	0x3d81fa88	0.06346613
136	0x3daf084c	0.085465044
137	0x3d98ddaa	0.07464154
138	0xbe37bd57	-0.17943321
139	0xbe4112bc	-0.18854803
140	0x3ccd6961	0.025074663
141	0xbebde996	-0.37092274
142	0xbf040032	-0.515628
143	0x3f6f3e9d	0.93454915
144	0x3cf21aed	0.029553855
145	0xbf14f75d	-0.58189946
146	0xbf22a03b	-0.6352574
147	0xbecc3e0a	-0.39891082
148	0xbdf3e952	-0.11909737
149	0xbe713adb	-0.23557608
150	0xbe1e0883	-0.15432934
151	0x4036005b	2.8437717
152	0xbe9700ec	-0.2949289
153	0x3f1790bf	0.5920524
154	0xbf294b71	-0.6613074
155	0xbee0d861	-0.43915084
156	0xbe817338	-0.25283217
157	0xbe14a64a	-0.14516559
158	0xbeb2989f	-0.34882066
159	0x3fd8d468	1.6939821
160	0xbe36a892	-0.17837742
161	0xbdc48247	-0.09595161
162	0xbe8f3cda	-0.27976114
163	0xbd4f3290	-0.05058533
164	0x3dac5183	0.084139846
165	0xbe7f7d9f	-0.24950264
166	0xbea38978	-0.31940818
167	0xbe99babb	-0.30025277
168	0xbebfbe05	-0.3744966
169	0xbf1652a2	-0.5871984
170	0xbf031a15	-0.51211673
171	0x3f660526	0.89851606
172	0x3c81f81e	0.015865382
173	0xbb4dfac0	-0.0031429976
174	0xbd986ed6	-0.07443015
175	0xbea090f1	-0.31360582
176	0xbe90b4c6	-0.2826292
177	0xbf015d37	-0.5053286
178	0xbdda17d4	-0.10649076
179	0xbf19370f	-0.5984964
180	0xbf9b37a0	-1.212635
181	0xbf63aedc	-0.8893869
182	0xbe565c9e	-0.20933768
183	0x3ff25d49	1.8934718
184	0xbdbfe7fe	-0.09370421
185	0xbe9471bc	-0.28993022
186	0x3f7ac2bc	0.9795339
187	0xbe0fb754	-0.14034778
188	0xbea6548a	-0.32486373
189	0xbec09fe5	-0.3762199
190	0x3df7cadd	0.1209924
191	0xbec66f5c	-0.38756835
192	0xbe72df7a	-0.23718062
193	0x3d9ca06c	0.076477855
194	0xbe64bf2e	-0.22338554
195	0xbef93afa	-0.48677808
196	0xbecb88a5	-0.3975269
197	0xbec12068	-0.37720037
198	0x3d59a4be	0.053135626
199	0xbd5f128a	-0.05446104
200	0x3c934750	0.01797834
201	0xbd33bcf0	-0.043881357
202	0xbec69086	-0.38782138
203	0xbe0f76d1	-0.14010169
204	0xbf55b09a	-0.834726
205	0xbed8eb4e	-0.42367023
206	0xbd845055	-0.064606346
207	0x3fd74752	1.681864
208	0xbc67b353	-0.014141875
209	0xbe427877	-0.18991266
210	0x3d1b75fe	0.037954323
211	0xbed6cfc2	-0.41955382
212	0xbedf9f41	-0.4367619
213	0xbe74dfd8	-0.23913515
214	0x3b8a04f5	0.0042120167
215	0x4037dbc4	2.8727884
216	0xbeb86660	-0.36015606
217	0x3f7c931f	0.9866199
218	0xbe21453b	-0.15749066
219	0xbed411b8	-0.41419768
220	0xbee65cfd	-0.4499282
221	0xbed6eb85	-0.41976562
222	0x3d9f7366	0.077856824
223	0x3fcf4121	1.6191751
224	0xbed1eee8	-0.41002584
225	0xbd9250f0	-0.07144344
226	0xbee4f866	-0.44720763
227	0xbd9b61a4	-0.07586983
228	0xbedfd4d5	-0.43717065
229	0xbea05b2f	-0.31319568
230	0xbecaaff8	-0.39587379
231	0xbea74efc	-0.32677448
232	0xbe949dab	-0.2902654
233	0x3dc1a8cd	0.09456024
234	0xbe0b852f	-0.13625024
235	0xbe39786a	-0.1811234
236	0x3dd1db7a	0.1024694
237	0xbdf36490	-0.11884415
238	0x3d2105c3	0.039312135
239	0xbebc1bb6	-0.36739892
240	0xbed4983c	-0.41522396
241	0xbc201c51	-0.009772376
242	0xbdfb19ce	-0.12260781
243	0xbe9e65a2	-0.30936915
244	0x3f149ba0	0.58049965
245	0x3ee8ea95	0.45491472
246	0xbee7d75c	-0.45281494
247	0x3f9dc35a	1.2325242
248	0xbe671301	-0.22565843
249	0xbf0cb711	-0.5496684
250	0x3d12db15	0.035853464
251	0xbed0969f	-0.40739915
252	0xbeb62c58	-0.35580707
253	0xbeee33d4	-0.46523917
254	0x3da0ddf7	0.078548364
255	0xbeb60946	-0.3555395

fc3.bias f4 [4]
0	0x3e95155c	0.29117858
1	0x3daf6bb0	0.08565462
2	0x3d819a7d	0.063282944
3	0x3d54db5d	0.051967014
